config/onnx_149_mann8.onnx (onnx, 409797 bytes, 16 tensors)

0.weight f4 [124, 124]
000000 3e 81 6f 40 00 00 00 00 00 00 00 00 00 00 00 00
       3.7422633 0.0 0.0 0.0
000010 00 00 00 00 00 00 00 00 00 00 00 00 00 00 00 00
       0.0 0.0 0.0 0.0
000020 00 00 00 00 00 00 00 00 00 00 00 00 00 00 00 00
       0.0 0.0 0.0 0.0
000030 00 00 00 00 00 00 00 00 00 00 00 00 00 00 00 00
       0.0 0.0 0.0 0.0
000040 00 00 00 00 00 00 00 00 00 00 00 00 00 00 00 00
       0.0 0.0 0.0 0.0
000050 00 00 00 00 00 00 00 00 00 00 00 00 00 00 00 00
       0.0 0.0 0.0 0.0
000060 00 00 00 00 00 00 00 00 00 00 00 00 00 00 00 00
       0.0 0.0 0.0 0.0
000070 00 00 00 00 00 00 00 00 00 00 00 00 00 00 00 00
       0.0 0.0 0.0 0.0
000080 00 00 00 00 00 00 00 00 00 00 00 00 00 00 00 00
       0.0 0.0 0.0 0.0
000090 00 00 00 00 00 00 00 00 00 00 00 00 00 00 00 00
       0.0 0.0 0.0 0.0
0000a0 00 00 00 00 00 00 00 00 00 00 00 00 00 00 00 00
       0.0 0.0 0.0 0.0
0000b0 00 00 00 00 00 00 00 00 00 00 00 00 00 00 00 00
       0.0 0.0 0.0 0.0
0000c0 00 00 00 00 00 00 00 00 00 00 00 00 00 00 00 00
       0.0 0.0 0.0 0.0
0000d0 00 00 00 00 00 00 00 00 00 00 00 00 00 00 00 00
       0.0 0.0 0.0 0.0
0000e0 00 00 00 00 00 00 00 00 00 00 00 00 00 00 00 00
       0.0 0.0 0.0 0.0
0000f0 00 00 00 00 00 00 00 00 00 00 00 00 00 00 00 00
       0.0 0.0 0.0 0.0
000100 00 00 00 00 00 00 00 00 00 00 00 00 00 00 00 00
       0.0 0.0 0.0 0.0
000110 00 00 00 00 00 00 00 00 00 00 00 00 00 00 00 00
       0.0 0.0 0.0 0.0
000120 00 00 00 00 00 00 00 00 00 00 00 00 00 00 00 00
       0.0 0.0 0.0 0.0
000130 00 00 00 00 00 00 00 00 00 00 00 00 00 00 00 00
       0.0 0.0 0.0 0.0
000140 00 00 00 00 00 00 00 00 00 00 00 00 00 00 00 00
       0.0 0.0 0.0 0.0
000150 00 00 00 00 00 00 00 00 00 00 00 00 00 00 00 00
       0.0 0.0 0.0 0.0
000160 00 00 00 00 00 00 00 00 00 00 00 00 00 00 00 00
       0.0 0.0 0.0 0.0
000170 00 00 00 00 00 00 00 00 00 00 00 00 00 00 00 00
       0.0 0.0 0.0 0.0
000180 00 00 00 00 00 00 00 00 00 00 00 00 00 00 00 00
       0.0 0.0 0.0 0.0
000190 00 00 00 00 00 00 00 00 00 00 00 00 00 00 00 00
       0.0 0.0 0.0 0.0
0001a0 00 00 00 00 00 00 00 00 00 00 00 00 00 00 00 00
       0.0 0.0 0.0 0.0
0001b0 00 00 00 00 00 00 00 00 00 00 00 00 00 00 00 00
       0.0 0.0 0.0 0.0
0001c0 00 00 00 00 00 00 00 00 00 00 00 00 00 00 00 00
       0.0 0.0 0.0 0.0
0001d0 00 00 00 00 00 00 00 00 00 00 00 00 00 00 00 00
       0.0 0.0 0.0 0.0
0001e0 00 00 00 00 00 00 00 00 00 00 00 00 00 00 00 00
       0.0 0.0 0.0 0.0
0001f0 00 00 00 00 e3 ba b9 40 00 00 00 00 00 00 00 00
       0.0 5.8040633 0.0 0.0
000200 00 00 00 00 00 00 00 00 00 00 00 00 00 00 00 00
       0.0 0.0 0.0 0.0
000210 00 00 00 00 00 00 00 00 00 00 00 00 00 00 00 00
       0.0 0.0 0.0 0.0
000220 00 00 00 00 00 00 00 00 00 00 00 00 00 00 00 00
       0.0 0.0 0.0 0.0
000230 00 00 00 00 00 00 00 00 00 00 00 00 00 00 00 00
       0.0 0.0 0.0 0.0
000240 00 00 00 00 00 00 00 00 00 00 00 00 00 00 00 00
       0.0 0.0 0.0 0.0
000250 00 00 00 00 00 00 00 00 00 00 00 00 00 00 00 00
       0.0 0.0 0.0 0.0
000260 00 00 00 00 00 00 00 00 00 00 00 00 00 00 00 00
       0.0 0.0 0.0 0.0
000270 00 00 00 00 00 00 00 00 00 00 00 00 00 00 00 00
       0.0 0.0 0.0 0.0
000280 00 00 00 00 00 00 00 00 00 00 00 00 00 00 00 00
       0.0 0.0 0.0 0.0
000290 00 00 00 00 00 00 00 00 00 00 00 00 00 00 00 00
       0.0 0.0 0.0 0.0
0002a0 00 00 00 00 00 00 00 00 00 00 00 00 00 00 00 00
       0.0 0.0 0.0 0.0
0002b0 00 00 00 00 00 00 00 00 00 00 00 00 00 00 00 00
       0.0 0.0 0.0 0.0
0002c0 00 00 00 00 00 00 00 00 00 00 00 00 00 00 00 00
       0.0 0.0 0.0 0.0
0002d0 00 00 00 00 00 00 00 00 00 00 00 00 00 00 00 00
       0.0 0.0 0.0 0.0
0002e0 00 00 00 00 00 00 00 00 00 00 00 00 00 00 00 00
       0.0 0.0 0.0 0.0
0002f0 00 00 00 00 00 00 00 00 00 00 00 00 00 00 00 00
       0.0 0.0 0.0 0.0
000300 00 00 00 00 00 00 00 00 00 00 00 00 00 00 00 00
       0.0 0.0 0.0 0.0
000310 00 00 00 00 00 00 00 00 00 00 00 00 00 00 00 00
       0.0 0.0 0.0 0.0
000320 00 00 00 00 00 00 00 00 00 00 00 00 00 00 00 00
       0.0 0.0 0.0 0.0
000330 00 00 00 00 00 00 00 00 00 00 00 00 00 00 00 00
       0.0 0.0 0.0 0.0
000340 00 00 00 00 00 00 00 00 00 00 00 00 00 00 00 00
       0.0 0.0 0.0 0.0
000350 00 00 00 00 00 00 00 00 00 00 00 00 00 00 00 00
       0.0 0.0 0.0 0.0
000360 00 00 00 00 00 00 00 00 00 00 00 00 00 00 00 00
       0.0 0.0 0.0 0.0
000370 00 00 00 00 00 00 00 00 00 00 00 00 00 00 00 00
       0.0 0.0 0.0 0.0
000380 00 00 00 00 00 00 00 00 00 00 00 00 00 00 00 00
       0.0 0.0 0.0 0.0
000390 00 00 00 00 00 00 00 00 00 00 00 00 00 00 00 00
       0.0 0.0 0.0 0.0
0003a0 00 00 00 00 00 00 00 00 00 00 00 00 00 00 00 00
       0.0 0.0 0.0 0.0
0003b0 00 00 00 00 00 00 00 00 00 00 00 00 00 00 00 00
       0.0 0.0 0.0 0.0
0003c0 00 00 00 00 00 00 00 00 00 00 00 00 00 00 00 00
       0.0 0.0 0.0 0.0
0003d0 00 00 00 00 00 00 00 00 00 00 00 00 00 00 00 00
       0.0 0.0 0.0 0.0
0003e0 00 00 00 00 00 00 00 00 37 5e 94 40 00 00 00 00
       0.0 0.0 4.636501 0.0
0003f0 00 00 00 00 00 00 00 00 00 00 00 00 00 00 00 00
       0.0 0.0 0.0 0.0

0.bias f4 [124]
000000 30 57 58 3e 10 cd c3 b9 11 e2 55 3e 66 9d c0 b9
       0.2112701 -0.00037346082 0.20887019 -0.00036738365
000010 9a 69 53 3e 12 bd ba b9 a4 5f 53 3e db 86 b8 b9
       0.20645753 -0.00035617553 0.20641953 -0.0003519569
000020 9d b3 56 3e a5 eb bc b9 00 00 00 80 00 00 00 80
       0.20966955 -0.00036033723 -0.0 -0.0
000030 88 3e 67 be e8 bf e1 39 64 67 6f be 06 7b ff 39
       -0.22582448 0.00043058326 -0.23379284 0.0004872905
000040 7f 2f 71 be 1a b3 0e 3a ae 60 6e be 65 91 1b 3a
       -0.23553275 0.00054435583 -0.23279068 0.0005934446
000050 1d 56 6b be 64 a5 24 3a 94 21 6a be 8d 19 29 3a
       -0.22982068 0.00062807486 -0.22864372 0.0006450646
000060 92 8e ed c0 22 c5 22 b2 eb a1 27 c1 45 88 d4 b1
       -7.4236536 -9.474464e-09 -10.477031 -6.185504e-09
000070 a6 2e 85 c1 88 9a 96 b1 06 5a 05 c2 e1 be 99 b1
       -16.647778 -4.3831427e-09 -33.337914 -4.4745865e-09
000080 c5 7b ec c2 af 73 0a b2 00 00 80 bf 86 55 6e 20
       -118.24174 -8.058961e-09 -1.0 2.0187681e-19
000090 f6 38 ec c2 c3 61 2f b1 3b 17 05 c2 46 48 43 30
       -118.11125 -2.5521423e-09 -33.272686 7.1043293e-10
0000a0 c5 ce 84 c1 94 57 b4 30 51 e5 26 c1 88 4b da 31
       -16.600962 1.3121615e-09 -10.430985 6.353222e-09
0000b0 30 1b ec c0 82 33 23 32 f8 4a b2 c0 f0 34 66 32
       -7.378319 9.49956e-09 -5.5716515 1.3399799e-08
0000c0 f8 d0 23 be 45 71 29 39 a6 7c 27 be 31 a8 3c 39
       -0.15997684 0.00016159292 -0.16356143 0.00017991733
0000d0 3e 20 22 be 8a 17 47 39 70 ce 1c be d2 8b 5c 39
       -0.15832612 0.00018986888 -0.15313125 0.00021032922
0000e0 20 3b 22 be f6 98 83 39 8e c6 2f be 8d b1 a2 39
       -0.15842867 0.00025100232 -0.17165586 0.00031031333
0000f0 03 53 3a be df 13 b8 39 c1 17 3c be f6 d3 c0 39
       -0.18195729 0.0003511002 -0.18368436 0.00036779017
000100 c3 11 31 be a6 10 ba 39 a3 dd 24 be 24 39 b6 39
       -0.17291932 0.0003548909 -0.16100173 0.00034756318
000110 08 31 21 be ca 79 b9 39 ae a0 24 be b0 8e c2 39
       -0.1574136 0.0003537669 -0.1607692 0.00037108874
000120 2a 62 93 be c0 94 56 bf e7 af 9a be f3 99 83 3f
       -0.2878583 -0.83820724 -0.30212328 1.0281357
000130 a3 d1 43 3f fa bf 60 3f 2a 3b 93 be a6 52 5a bf
       0.76491755 0.87792933 -0.28756076 -0.8528236
000140 e0 cc 98 be 09 93 83 3f ae 9e 43 3f 65 c1 64 3f
       -0.29843807 1.0279247 0.76414 0.89357597
000150 32 d0 a1 c0 fb 7c 10 b6 5e 3f 5b 35 df 26 28 bf
       -5.0566645 -2.153042e-06 8.167607e-07 -0.6568431
000160 67 00 75 b5 4e 9c e0 33 be 23 86 3f 14 5d 1d 40
       -9.12702e-07 1.04592445e-07 1.0479658 2.458806
000170 b9 07 30 40 05 e7 46 bf 8b 23 86 3f 21 5d 1d 40
       2.7504714 -0.7769626 1.0479597 2.4588091
000180 bb 07 30 40 04 e7 46 bf 2b 2f ad b8 ad a0 af b8
       2.7504718 -0.7769625 -8.2580686e-05 -8.3745785e-05
000190 16 d2 68 b9 ff 92 60 38 fa 48 0d 38 22 c5 be 38
       -0.00022203507 5.3542662e-05 3.3684984e-05 9.096625e-05
0001a0 ea 1c ad b8 0b 97 af b8 9b 61 68 b9 63 41 61 38
       -8.2546685e-05 -8.372784e-05 -0.00022161605 5.3705076e-05
0001b0 cc 29 0d 38 f3 c7 be 38 4c 7c 17 3a 22 65 bc 32
       3.3655946e-05 9.0971495e-05 0.00057787145 2.193207e-08
0001c0 36 64 db 30 35 67 a0 b9 69 bd 93 33 12 e1 b1 b1
       1.5962829e-09 -0.00030594473 6.8796744e-08 -5.1769655e-09
0001d0 7b d2 45 b9 b0 89 8a b9 b5 fc 32 38 c1 8e 09 3a
       -0.00018865794 -0.00026423996 4.267386e-05 0.0005247407
0001e0 00 d9 45 b9 cd 96 8a b9 4a e6 32 38 1f 8e 09 3a
       -0.00018868223 -0.00026433766 4.265298e-05 0.0005247313

1.gn.w0 f4 [32, 124]
000000 8e a0 31 bd cf 9d cd bd 07 7e 2e bd 1c 60 74 be
       -0.043366008 -0.10039865 -0.042600658 -0.23864788
000010 7f b4 3d bd 4f 82 e7 be 02 49 9f bd e9 7d 02 bf
       -0.046314713 -0.45216605 -0.07777597 -0.50973374
000020 60 65 ab bd d1 d4 c0 be 66 fc 01 bc a3 e3 13 be
       -0.08368945 -0.37662366 -0.007933712 -0.14442305
000030 ba 52 2e bd 9b d6 b9 bc 2a b6 1f 3d 86 ca 8c bd
       -0.042559363 -0.02268534 0.038992085 -0.06874566
000040 ef e4 61 3d b5 3f 2e be 3f ec 20 3d 61 cd 8a be
       0.05514997 -0.1701649 0.0392878 -0.27109817
000050 5a 5d 6f 3d cd ae 11 be 0c f4 1d 3c 44 4b ee bb
       0.058438636 -0.14226837 0.009640705 -0.007272156
000060 80 8b 91 3c 5d 2d c6 bd 42 3d f6 bc 21 6d 89 bd
       0.017766714 -0.09676621 -0.030058507 -0.06710268
000070 b9 22 7e 3b f4 f8 3d bc ae bd 0e bd 58 6d e0 3d
       0.003877802 -0.011595 -0.03484886 0.10958356
000080 6b 6e ba bd 8c b8 62 3d fd 59 e0 3b b0 55 16 bd
       -0.09103092 0.05535178 0.006846665 -0.03670281
000090 b4 4a 46 3e ee 76 b4 3d cf 28 d4 3d ea 7a d8 3d
       0.19364434 0.088117465 0.10359346 0.10570319
0000a0 2b 65 14 3d 4f ee 4f 3e 80 1e 06 bd a0 e1 3d 3e
       0.036229294 0.20305751 -0.03274393 0.185431
0000b0 fa 31 98 3c fb 68 06 3e 9d 14 dd 3b 7d 1d 83 3d
       0.018578518 0.13125984 0.006746842 0.06402109
0000c0 95 86 6f bb eb f1 3b bd 71 85 4e bd b5 83 69 be
       -0.0036548723 -0.045885008 -0.05042023 -0.22804148
0000d0 22 44 03 3c 7d ca 41 be fb 48 a2 3d 94 7e 17 3e
       0.00801185 -0.189249 0.07924076 0.1479438
0000e0 72 55 5d bd 18 78 85 3e ee 42 a4 be 00 41 32 be
       -0.054036565 0.26068187 -0.32082313 -0.17407608
0000f0 8d 7f 56 bc c4 d4 74 3a bf 34 16 bd 54 3c b7 be
       -0.013091934 0.0009339566 -0.036671396 -0.35788214
000100 fa 78 9a ba 30 5f 11 be 99 11 a1 bb d0 8c fc 3c
       -0.0011785321 -0.14196467 -0.004915428 0.030828863
000110 0c 6b c5 bd 5e ce 01 3e 9e ea 07 bd 4e 35 2c 3d
       -0.09639558 0.12676379 -0.033182733 0.042043023
000120 26 d0 53 bd c7 d0 39 bd 50 fa 93 3c 23 8e e0 3e
       -0.051712178 -0.04536512 0.018063694 0.43858442
000130 5a 10 a8 3e c8 95 83 3c ce 67 fb 3e 85 2d 01 3f
       0.32824975 0.016062632 0.49102634 0.5046008
000140 f4 ad bc bd 0c 14 5c bf b6 d1 a7 be fd 5d 1c bf
       -0.092128664 -0.8596809 -0.32777184 -0.61080915
000150 49 c0 0e 3e 7b e0 ea 3b 6a e3 40 bd bc 63 69 bc
       0.13940538 0.0071678734 -0.04709188 -0.01424497
000160 e2 a3 22 3d bb cf 10 bb 41 78 89 bb b7 a2 b3 3d
       0.039707072 -0.0022096473 -0.0041952436 0.0877127
000170 ba bb f3 3d 20 44 e8 3b 40 cf 94 3c f3 f0 ad 3c
       0.119010404 0.0070881993 0.01816523 0.021233058
000180 ae 99 f0 bd 63 c3 52 3d f8 c5 ea 3e 88 9b 38 3d
       -0.11748062 0.051455867 0.45854163 0.0450702
000190 71 b1 81 be 2e 86 c3 3d c2 b0 fa 3e 00 88 21 3e
       -0.2533069 0.09547077 0.4896298 0.15774536
0001a0 1a 4c 67 3d a9 f3 72 bd ec 44 68 be 8b a9 aa 3c
       0.05646906 -0.059314404 -0.22682542 0.020832798
0001b0 3d 30 73 3d f9 8a 9a 3c 46 98 00 3e 4b d6 ec bc
       0.059372175 0.018865095 0.12558088 -0.028910777
0001c0 d5 e2 5d bc ed ba 3e 3d a6 64 36 bd ff 95 41 bd
       -0.0135428505 0.046564985 -0.04452958 -0.047262188
0001d0 a9 02 a1 bc 51 bd 41 3e 12 7a 8a bd 18 54 38 3c
       -0.019654589 0.18919875 -0.06761564 0.011250518
0001e0 d9 b5 01 be 5c 79 a3 bd bb 79 ba bd d5 71 cb 3c
       -0.12667026 -0.07982132 -0.091052495 0.024834553
0001f0 90 e8 53 bd c3 5f f3 bc ae eb 3d bd bf 56 f0 bb
       -0.05173546 -0.029708749 -0.04636734 -0.0073345597
000200 09 53 82 bd 35 c5 4d 3d 4c 99 a2 bd 03 aa 45 3e
       -0.06363494 0.0502369 -0.07939395 0.19303136
000210 21 5c ae bd fb 62 59 3e 44 20 5e bd 29 65 12 3e
       -0.08513666 0.21229164 -0.05422999 0.14296402
000220 d6 66 c5 3c 3a 51 9c 3c 13 d9 91 3d e7 bb 6f 3e
       0.024096888 0.0190817 0.07121482 0.23411523
000230 57 99 3d 3d 83 5d e6 3e 61 56 27 3d 6a 32 9c 3e
       0.046288814 0.4499322 0.04085386 0.30507213
000240 78 19 de 3c 2d ae 15 3e bc b4 29 3d ce c2 60 3d
       0.027111754 0.14617224 0.041432127 0.05487328
000250 fd d7 1d bb 59 ce 36 3d 2b f3 33 3b b6 3c 9a 3c
       -0.0024085038 0.044630382 0.0027458172 0.018827777
000260 58 c5 70 bb 8f b4 a1 bb 36 29 8d bc 09 4a a5 bb
       -0.003673872 -0.0049348543 -0.017231565 -0.005044226
000270 6c ee 20 bd 16 bd f2 bc 56 1a 05 bb f7 bf 83 bb
       -0.039289877 -0.029631179 -0.0020309887 -0.0040206867
000280 0d 2d d8 3c 2b ea 81 bc 78 57 99 ba e3 c4 80 bd
       0.02638867 -0.01585873 -0.0011699041 -0.06287553
000290 fe 62 88 bc e2 f0 de bd 15 40 28 bd 4b b9 06 be
       -0.016648766 -0.108857885 -0.04107674 -0.13156621
0002a0 2c cf 7a bc c9 25 d2 bd d8 4c 62 bb a5 6a 94 bd
       -0.015308183 -0.10261113 -0.0034530666 -0.07246903
0002b0 76 68 ba 3c a4 ae d7 3d 06 e1 03 bc 50 95 db 3d
       0.022754889 0.10531357 -0.008049255 0.107218385
0002c0 4a 26 53 bc 48 54 06 bc dc 56 32 3d 1f 6d 05 3d
       -0.012887547 -0.008198805 0.043539867 0.03257477
0002d0 58 56 00 3d 15 3a 7b bd 9b da 35 be 11 38 0f be
       0.031332344 -0.06133469 -0.17759173 -0.13986231
0002e0 ad 7d 5c 3d 61 67 f6 3d af 42 d1 3b 6f 43 c6 3e
       0.05383079 0.12031437 0.006386123 0.38723323
0002f0 d1 2d e0 bc 05 a1 03 bc 06 a9 6b bc 09 43 93 3b
       -0.027365597 -0.0080339955 -0.01438356 0.004494075
000300 fc ac d7 3c f1 15 6a bd 51 5b c2 3b d6 06 91 bd
       0.026327603 -0.05714983 0.005931296 -0.07081382
000310 3d d7 04 3e a8 e8 10 3d fa 65 92 bd c5 4f e7 be
       0.12972732 0.03537813 -0.07148357 -0.45178047
000320 6e ed 04 be 35 b2 d1 bd af 27 a7 bc cc 65 96 be
       -0.12981197 -0.102390684 -0.020404665 -0.2937454
000330 9f 0f 8d 3d 39 b6 f5 3e 1d c9 f9 3d ae df d6 3e
       0.06887745 0.47990587 0.121965624 0.4196753
000340 6e 76 75 bc 98 8c 1c be 63 64 cf bd c9 bc 10 bd
       -0.014981849 -0.15288007 -0.10126569 -0.03533629
000350 5b 97 1e be 6f 96 0f 3e d1 ba 26 3d 68 a2 30 bb
       -0.15487425 0.1402223 0.040705506 -0.002695227
000360 b2 33 74 3d 13 2b 98 3c 00 97 8a ba 8d 88 25 3d
       0.059619613 0.018575227 -0.0010573566 0.040413428
000370 46 41 c5 bb 7b 6f 2b bc 4b 32 15 3e fa 8c a3 3d
       -0.006019744 -0.010463591 0.14569966 0.079858735
000380 18 8d b8 bd ef b6 c9 3d 26 e0 2b 3e ee 91 9f bc
       -0.090112865 0.09849345 0.16784725 -0.019478764
000390 c9 66 f9 bb 5f aa 98 3c ee b7 b4 bd b0 e4 4e 3d
       -0.00761113 0.018635927 -0.08824144 0.050511062
0003a0 fb 17 cd 3c 10 9a 2a be a7 fa e2 3c 01 db c5 bd
       0.025035849 -0.16660333 0.027707411 -0.09660912
0003b0 96 d1 8f bd 40 ce c5 bd 30 f3 f8 bc 22 bd 39 bd
       -0.07022397 -0.0965848 -0.030389398 -0.045346387
0003c0 9b cf 22 bc c8 82 0d 3d 22 fa ef bd fe bd 37 3d
       -0.009937192 0.03454855 -0.11717631 0.044858925
0003d0 51 9a 9e bd dd 42 bf 3d 38 51 5c 3a 6b 0b 85 3d
       -0.07744277 0.09338925 0.00084044365 0.064963184
0003e0 63 7d 28 3d 95 55 cb 3d 3e 3a 9d 3d 3e 81 9f 3d
       0.041135203 0.09928433 0.076771244 0.07788323
0003f0 fe 48 f3 3d 27 56 8e 3c 91 e5 26 3e 88 34 92 bd
       0.118791565 0.017375065 0.1629851 -0.07138926

1.gn.w1 f4 [32, 32]
000000 18 8f 83 bb 4c 0c aa 3d 7c 31 76 3b a8 e5 77 bd
       -0.004014861 0.08303127 0.0037566116 -0.06052175
000010 21 aa 1d bf 64 d3 11 bd 64 98 3e bd 3d 35 00 3e
       -0.6158772 -0.03560199 -0.04653205 0.12520309
000020 70 59 70 3d 8c 34 15 3c 42 0a ed 3e d8 17 4c bc
       0.058679044 0.009106766 0.4629689 -0.012456857
000030 94 e9 a5 bd 07 ae 6d 3d 92 eb 02 3e d4 f7 e6 3e
       -0.08101192 0.058027294 0.12785175 0.45110953
000040 cc ab 8e bd e4 57 f5 3d a2 7f 4b 3e ac 37 2f bd
       -0.069663614 0.119796544 0.19872907 -0.042777702
000050 56 a3 07 3d f9 16 e6 bd d5 51 b3 3e fe 36 1a bc
       0.033114754 -0.112348504 0.3502337 -0.009412525
000060 f3 f0 94 bb b5 e0 da bc 15 42 87 3d d2 c4 a6 bb
       -0.004545325 -0.026718477 0.06604401 -0.005089381
000070 45 73 83 bd ef fe c6 3e 36 d8 d5 3d 8a 2e d0 be
       -0.0641847 0.38866374 0.104416296 -0.40660506
000080 15 49 11 3c 76 df 5f bc bf 0d 73 be d3 c1 82 3d
       0.008867522 -0.013664117 -0.23735712 0.06384625
000090 34 15 ab bd c2 08 ca bc 81 4a a7 3e 48 2e 2c 3c
       -0.083536536 -0.02466238 0.3267403 0.010509081
0000a0 e5 68 a1 be f7 25 14 bd 3a a5 d4 bc 21 9b b8 bb
       -0.3152534 -0.03616902 -0.025957692 -0.005633727
0000b0 cc 1e 51 3e 2a 60 69 be d5 e0 9e 39 ba 10 d4 3b
       0.20421904 -0.2279059 0.0003030362 0.0064717205
0000c0 d0 13 e9 3b f3 37 b1 bc 48 6a 68 b9 fc 4d 48 bd
       0.0071129575 -0.021633124 -0.00022164837 -0.048902497
0000d0 08 25 db bd 4e e4 e2 bd 09 83 e4 be 26 50 39 3d
       -0.107004225 -0.11078702 -0.44631222 0.04524245
0000e0 fb 18 1f 3d 05 fb da bd db 26 51 be 42 43 cb bc
       0.038842183 -0.106924094 -0.20424978 -0.024812344
0000f0 56 7d 36 3d 2e d5 96 3d 00 c8 40 bc 53 7d 2a bd
       0.044553123 0.073648795 -0.011766434 -0.041623425
000100 5f a0 f0 3e 31 c3 13 bd 7a 7b bb bb 4b 2b 8a 3e
       0.46997353 -0.03607482 -0.0057215067 0.26986155
000110 78 f4 1b 3e 2a ef d9 3d 61 6c bd bd 21 56 a4 3c
       0.15229976 0.1064132 -0.09249187 0.0200606
000120 67 ff 8f 3c 9c f3 01 bc bc 60 1d 3b 38 af 12 3f
       0.01757784 -0.007931616 0.0024013957 0.5729861
000130 39 8c 92 bd 40 2a eb 3d 52 53 5a 3c 14 18 b8 3b
       -0.071556516 0.11482668 0.013325529 0.0056181047
000140 b0 cb 0f bc a0 b7 54 bc 96 c5 35 bd e1 97 17 3e
       -0.00877659 -0.012983233 -0.044377886 0.14804031
000150 20 92 93 3d 30 10 6c 3e f7 6d 9c bd 61 4c 23 bd
       0.072056055 0.2305305 -0.07638162 -0.039867762
000160 c0 1a 06 3f 07 f8 cb bc 5d c6 4e 3e 1c 70 1a bc
       0.5238457 -0.024898542 0.20192857 -0.009426143
000170 8d c0 12 3e 4d bf 74 3c ac e0 e5 ba d0 b0 08 3d
       0.14331265 0.014938188 -0.0017538271 0.033371747
000180 08 5a 78 3d c3 89 0b 3d 98 24 93 bf 4f 38 d9 be
       0.060632735 0.034066927 -1.1495543 -0.42425773
000190 f2 23 b0 3d 41 bd 16 bf 24 9f 05 3e 3f d0 cb 3e
       0.08600606 -0.5888253 0.13048989 0.39807317
0001a0 f1 7e 5f bf 16 01 2e 3c 5f 8e ca bb 20 41 f3 3b
       -0.8730307 0.010620376 -0.0061815227 0.007423535
0001b0 f7 4a 81 3e 1a 49 51 bd 65 1a 7c 3e 24 43 75 bd
       0.25252506 -0.051095106 0.24619444 -0.059878483
0001c0 0a b3 84 3f 0e c6 f3 3c 28 2b 22 bd 2d c4 22 bf
       1.0367138 0.029757526 -0.03959194 -0.6358059
0001d0 d1 2c 1f c0 f0 3d 1e 3e ba c6 9e bd 78 ad 3c 3c
       -2.4871104 0.15453315 -0.07752748 0.011515968
0001e0 92 1c 21 3c f5 32 bd 3f 02 12 03 bd d9 f3 2f bd
       0.009833472 1.4781176 -0.031999595 -0.04295716
0001f0 1e f6 d3 be bc bb 16 be df 21 70 3d 3f 3e 8c 3e
       -0.4139871 -0.14720052 0.058626052 0.2739124
000200 3c 87 36 3d b3 f0 cc bd 4d 56 4b bf 0b f7 6b be
       0.044562563 -0.10006847 -0.7942856 -0.23043458
000210 a0 2b f1 bc 13 b9 99 bc 22 4d 7c 3d 14 4d b0 bc
       -0.029439747 -0.018765008 0.061596997 -0.021521129
000220 87 e0 25 bf 6c 77 4d 3d 46 a3 b8 3d 07 a6 49 3c
       -0.64795727 0.050162718 0.09015517 0.01230765
000230 18 d2 74 3e 7d b7 fe bc 3d c4 ba 3d ad 8c 87 bd
       0.2390827 -0.031093353 0.09119461 -0.06618629
000240 69 24 08 3f d3 85 8c 3e d1 d8 60 be 99 9e ac bd
       0.5318056 0.2744585 -0.21957709 -0.084286876
000250 26 22 27 be ea 0b 11 3e 83 a1 1a bd db 1f bb bc
       -0.1632162 0.14164701 -0.037751686 -0.022842338
000260 9f d0 44 bc 97 55 13 3f 40 ca 0e bc 30 22 4f bd
       -0.01201263 0.57552475 -0.008715212 -0.050569713
000270 0e a6 39 be d2 63 fd bd f0 41 0b 3e d5 cf 63 3e
       -0.18129751 -0.12372555 0.13599372 0.2224725
000280 c9 49 a8 bb 9f 23 a8 bd cc 55 6b 3d c5 b9 27 3f
       -0.005135749 -0.08209919 0.05745487 0.65517837
000290 cb 0a 59 bd 3a 09 9e bd 1f 1c e7 3b 7f eb c6 3d
       -0.05298881 -0.077166036 0.007052913 0.09712886
0002a0 40 2c 48 3e 8f 8d a8 3b ec 43 89 be 78 aa ff 3c
       0.1954813 0.005143828 -0.26809633 0.031209216
0002b0 7f 6e 0f 3d d6 d6 80 bd 35 dd 89 3d 82 2a 4f be
       0.035017487 -0.06290977 0.06731645 -0.20231059
0002c0 ad 65 84 bc 47 ee 97 be ca ce 13 be 79 58 c0 3d
       -0.016161764 -0.2967398 -0.14434353 0.09391875
0002d0 ef 88 cb 3d ab 3c 23 3d 77 e5 9f bd 76 c2 e3 3b
       0.099382274 0.03985278 -0.07807439 0.006950672
0002e0 7e 57 0a bb c7 41 36 3d dc 39 9d bd a2 3e 28 3d
       -0.0021109278 0.044496324 -0.076770514 0.041075356
0002f0 aa 5e 41 3f 9e 00 93 be e7 02 2f bd c8 b6 78 bd
       0.7553507 -0.28711408 -0.042727377 -0.06072119
000300 67 62 1f be 14 7e 8e 3e 63 31 d0 3d 9a 42 f4 bd
       -0.15564881 0.27830565 0.1016567 -0.11926766
000310 58 f6 1b be 9a e9 11 3d 7a 21 89 3a a4 bd 82 bc
       -0.15230691 0.03562317 0.0010462247 -0.015959568
000320 ad 8b 9b 3d fa 05 da bc d9 e8 35 bc 1f 2e d5 3b
       0.075950004 -0.026614178 -0.0111028785 0.006505742
000330 9e 4f 24 3c 4d a2 e6 bd 87 f6 98 bb 5c 61 81 3c
       0.010028748 -0.11261425 -0.00466806 0.015793495
000340 3e 3b 67 3d 45 dd 4b 3b c9 2a 88 3e 2e 54 f9 3b
       0.056452982 0.0031107229 0.26595142 0.007608912
000350 84 f2 41 3c 2a 6c 31 be c7 b3 3f bd 02 08 ac 3b
       0.011837605 -0.17326418 -0.04680231 0.005249978
000360 7c 11 8c bd fb 0f c2 bb 50 06 34 be cf 14 ee bb
       -0.068392724 -0.005922315 -0.17580533 -0.007265664
000370 c8 c1 1a be 7f 08 27 3d 9c c2 76 bb e5 c6 95 bd
       -0.15112984 0.040779587 -0.0037652617 -0.07313327
000380 26 ca 92 3d 04 40 99 3e 1e 77 57 be b6 44 35 bf
       0.07167463 0.29931653 -0.21041533 -0.7080797
000390 c6 55 7f bf 88 c6 44 bf ea 77 b9 bd 52 e7 d1 3e
       -0.99740255 -0.76865435 -0.09056075 0.40996796
0003a0 cc 4f ab 3e e9 1e bf bd b3 4c 7d 3f eb ce ca bd
       0.33459318 -0.093320675 0.9894516 -0.09902748
0003b0 6a 6a 83 be 78 4b 48 3e b4 16 80 3e 6c d7 39 3f
       -0.25667125 0.19560039 0.2501732 0.7259433
0003c0 1f 5d 09 be 72 5a 98 bd 10 60 21 3e 0e f4 27 bf
       -0.13414429 -0.07439126 0.15759301 -0.6560677
0003d0 59 8f 85 3d 69 ee df bd a3 bb d6 3e a1 48 16 bc
       0.06521482 -0.10934145 0.4194003 -0.0091725895
0003e0 64 0d d3 3c 9f 34 ca 3b bf 36 02 3e 44 47 19 bc
       0.025763221 0.0061708237 0.12716196 -0.00935537
0003f0 be 26 1a bf 3c 5b 64 3f 5a ff 67 3d 0a a9 2c bf
       -0.60215366 0.8920171 0.056640007 -0.67445433

1.gn.w2 f4 [4, 32]
000000 48 28 65 3d 6d 9e 0e be 0a c3 05 3d 3e 41 72 bd
       0.05594662 -0.13927622 0.032656707 -0.05914425
000010 c3 de ff 3d 8e 63 28 be 2d cf 74 bc 8f ee 93 3c
       0.1249366 -0.16444227 -0.014941973 0.01805809
000020 7d d7 0f 3d 73 73 d6 3d 90 55 94 be 6f e6 a0 3e
       0.035117615 0.10471239 -0.2897153 0.31425807
000030 f9 77 8f 3e bd 5c 19 3e 71 11 84 3c 34 97 f5 bd
       0.2802122 0.14976783 0.016121598 -0.1199173
000040 96 67 b3 be f1 4e c8 bd 0d 59 77 3e 51 22 18 be
       -0.35039967 -0.09780682 0.24155064 -0.1485684
000050 26 45 bd bd 10 bc 5c bd ec 1a 02 be a4 41 24 be
       -0.09241705 -0.053890288 -0.12705582 -0.16040665
000060 33 72 0c be bd d8 cc bd 50 24 fa 3d 70 a0 a7 bd
       -0.13715439 -0.10002277 0.12213957 -0.08184898
000070 18 86 85 3e 81 fd c3 3e 70 75 fc 3d 16 cd 41 3e
       0.26078868 0.38279346 0.12327087 0.1892589
000080 b2 5b 69 3d 44 de 15 be 06 a9 0c 3d 29 d2 5c bc
       0.056972213 -0.14635569 0.03434088 -0.01347784
000090 5d 6b 3c 3e e0 46 58 be 7f 1d ba bd b5 89 98 3c
       0.18400331 -0.21120787 -0.09087657 0.018620351
0000a0 45 a5 b6 bc 89 5b 07 3e bf d7 c9 3c 23 f7 cd 3d
       -0.022295604 0.13218512 0.024639009 0.10056903
0000b0 35 47 90 3e 01 87 1f 3e a5 a1 72 3d 4d 2f f2 bd
       0.28179327 0.15578844 0.059236187 -0.11825428
0000c0 eb 1b b3 be 3d 89 5f bd 1e 27 78 3e 9b 8f 16 be
       -0.34982237 -0.05457424 0.24233672 -0.14703219
0000d0 fc 48 4c bd 9e 80 f2 bd f7 06 a5 bc f6 74 07 be
       -0.04987429 -0.11840938 -0.020144923 -0.13228211
0000e0 d4 4b c1 bd 2f a9 cb bd 21 b3 86 3d 16 31 dc 3a
       -0.09438291 -0.099443786 0.06577135 0.0016799297
0000f0 f3 dd 2c 3d d8 b2 20 3e a3 83 04 3e 1d 02 04 3e
       0.042203855 0.15693223 0.1294084 0.12891431
000100 fd b8 41 bb ff 42 9d bd 63 ac 09 3d af 35 64 bc
       -0.0029559724 -0.07678794 0.033611666 -0.013928815
000110 6d 3f 3c 3e 11 92 29 be 23 e6 a1 bd 22 36 cb bc
       0.1838357 -0.16559626 -0.07905223 -0.024806086
000120 3f ef 0d 3d 58 ce d5 3d 08 56 89 be 40 83 a1 3e
       0.03465199 0.104397476 -0.2682345 0.31545448
000130 26 e9 8f 3e 53 bc 8f 3d 40 2e 72 3d a2 74 f3 bd
       0.28107566 0.07018342 0.05912614 -0.1188748
000140 42 08 c9 be f8 1d 60 bd e4 9b 3d 3e fb 3d 17 be
       -0.39264113 -0.05471608 0.18516499 -0.14769737
000150 85 f1 49 bd a0 71 5f bd 8d 7c df bc e1 a5 24 be
       -0.049302597 -0.05455172 -0.02728107 -0.16078903
000160 db 64 c1 bd dc 18 2b be c3 02 f9 3d 68 4f a0 bd
       -0.09443065 -0.16708702 0.1215873 -0.078276455
000170 c2 70 85 3e 71 dc c4 3e a2 e4 3c 3d ea 3e 41 3e
       0.2606259 0.38449433 0.04611648 0.18871656
000180 f0 80 69 3d 71 e5 97 bd fc c4 18 bd 3c 28 5a bc
       0.05700773 -0.07416809 -0.037297234 -0.013315257
000190 63 80 3c 3e 19 7a 51 be f3 5c 03 bc 47 de 98 3c
       0.1840835 -0.20456733 -0.008017766 0.018660678
0001a0 3f 4c 12 3d c1 40 07 3e 70 ba 9c be db 18 bf 3d
       0.035717245 0.13208295 -0.3061099 0.09330913
0001b0 44 e9 60 3e de d6 78 3d 16 34 73 3d 93 5c 32 be
       0.21963984 0.06075179 0.059375845 -0.17418127
0001c0 73 15 b3 be 63 d4 5e bd c1 55 78 3e dd ac 53 be
       -0.34977302 -0.054401767 0.24251463 -0.20671411
0001d0 21 b9 47 bd e6 90 5b bd a8 24 12 be 56 7a 07 be
       -0.048760537 -0.053604983 -0.14271796 -0.13230261
0001e0 d7 d6 c0 bd 6d ec ca bd 26 fd fa 3d 1b 80 06 3b
       -0.094159774 -0.09908376 0.122553155 0.0020523134
0001f0 b7 66 14 3d c2 1f 1a 3e 1d 30 1c 3d 4e 1e 42 3e
       0.03623077 0.15051177 0.038131822 0.18956873

1.gn.b0 f4 [32, 1]
000000 e1 24 98 bf 56 9b f5 be e9 fc 53 bf bb 96 38 bf
       -1.1886255 -0.47970074 -0.82807785 -0.72104996
000010 d0 f6 57 bf 50 f8 68 bf f2 76 89 bf ef dc 0b c0
       -0.8436098 -0.91003895 -1.0739424 -2.1853597
000020 eb 1c 7f bf a4 db f3 be 83 2a 33 bf 61 a6 62 bf
       -0.996535 -0.4762851 -0.6998674 -0.88535124
000030 b9 a6 25 be c0 89 90 bf 28 93 d7 bf 66 80 43 bf
       -0.16176881 -1.1292038 -1.6841784 -0.76367795
000040 21 68 47 bf 73 d9 8d 3f 78 dc 7b be 55 63 db bf
       -0.77893263 1.1081985 -0.24595821 -1.7139689
000050 79 0f fd 3d 3a 01 a6 bf 97 fe 43 be 1a f6 4c bf
       0.12356467 -1.2969124 -0.19140087 -0.8006302
000060 4f a4 86 bf f7 60 65 bf a6 03 c2 bf 00 ad 8d be
       -1.0518893 -0.8960108 -1.5157363 -0.2767105
000070 e1 c5 80 bf d5 40 84 bf 79 e0 da be 85 e7 af bf
       -1.0060388 -1.0332285 -0.42749384 -1.3742529

1.gn.b1 f4 [32, 1]
000000 5a 5c b6 3f 75 82 95 3e 9c 9d 6e 3f e4 96 e5 3f
       1.4246933 0.29201093 0.9320924 1.7936673
000010 f5 1f b8 3f 30 32 8e be 2a f8 af be d0 d2 02 3f
       1.4384753 -0.27772665 -0.34369022 0.51102924
000020 30 56 f5 3c d7 1f 3e bf f6 75 8b be be 54 8e bd
       0.029948324 -0.74267334 -0.27238435 -0.06949757
000030 79 50 3e 3f 2b 2f 5f 3d 6a e3 8e 3f 5b 0a 12 3f
       0.7434154 0.054488342 1.1163151 0.5704705
000040 0c 0d 77 bd 0e bd 71 3f a9 77 ba 3f 43 10 17 3f
       -0.060315177 0.944291 1.4567767 0.5900919
000050 01 04 4a 3f 8e b0 1b 3f 45 03 c3 3d ff 3f ba be
       0.7891236 0.60816276 0.09522108 -0.3637695
000060 9e 9e 8a 3f c7 b3 a9 3f 57 98 b6 3c df 4d b2 3e
       1.0829656 1.3257989 0.022289438 0.34825036
000070 1b f5 8a bd f9 6b 90 bd ff 56 3d 3d 30 cd 1a 3f
       -0.067850314 -0.07051844 0.046225544 0.6046934

1.gn.b2 f4 [4, 1]
000000 4a d0 eb 3d 61 52 09 bf 63 0f 3a bd 10 88 13 bf
       0.11514337 -0.53641325 -0.04542483 -0.5762949

1.mpn.w0 f4 [4, 64, 124]
000000 fb cb 19 bd 54 52 0e bd 95 f8 cf bc 35 b1 61 3b
       -0.037548047 -0.034746483 -0.025387088 0.00344379
000010 d9 0c 28 bd 94 01 e5 3c 71 28 21 bd fa 0b c2 3c
       -0.041027877 0.027954854 -0.03934521 0.023687351
000020 0d cc b9 3b 73 45 89 3c 76 2a c9 bc ef 99 82 bc
       0.0056700767 0.016756749 -0.02455638 -0.015942542
000030 76 62 ec bc f5 dc ca bc 2c 21 a3 bc f5 35 3f bd
       -0.028855544 -0.024763564 -0.019913279 -0.046682317
000040 d4 eb 20 bd 27 73 5a bd 7e cb 78 bd d2 c6 f7 bc
       -0.039287403 -0.053332474 -0.06074094 -0.030246172
000050 c0 16 8e bd e8 0f 17 bd 78 78 ae bd f9 4d 9f bd
       -0.06937933 -0.036880404 -0.08519071 -0.07778544
000060 21 36 51 3c a2 d9 16 bd 2e ec f8 ba 40 48 bd bc
       0.012769253 -0.036828645 -0.0018991285 -0.02310574
000070 43 6c 15 bc ff 76 30 3d 8f e8 3d bc 79 8b 49 3d
       -0.00912005 0.043082234 -0.011591091 0.049205277
000080 3e 87 3e 3d b8 68 b6 3d 54 f1 00 bc 08 f6 51 bb
       0.046515696 0.08906692 -0.007870037 -0.0032037515
000090 cf d2 d3 bc b2 08 c8 3d 28 38 2e bd 55 0a b3 3e
       -0.025857357 0.097672835 -0.042534024 0.3496882
0000a0 0a 11 8c bc 20 cf fc 3e fc 79 0f bc 2e b0 06 3f
       -0.017097969 0.49376774 -0.008757111 0.5261258
0000b0 ee cf 62 bc 31 a5 f6 3e 27 42 dc bc 2a a4 d7 3e
       -0.01384352 0.48172906 -0.026887013 0.42117435
0000c0 ba 21 f8 3c 0c a1 0c 3d a5 7e 92 bb cb f6 a7 3c
       0.03028952 0.034333274 -0.0044706636 0.020503422
0000d0 4b 0e 4d bc 34 52 5d bb 98 6b 25 3d ba 94 d2 bc
       -0.012515615 -0.003377092 0.040385813 -0.025705684
0000e0 94 e8 83 bc e1 c8 6a bb e5 67 ab bc a8 bc 08 3d
       -0.016102113 -0.00358253 -0.020923564 0.03338304
0000f0 ce 83 3a bc 9b e7 7b 3a e5 71 c7 bc 77 91 56 3b
       -0.011383964 0.0009609402 -0.024346301 0.0032740512
000100 e9 ae 8e bc cb ed 53 3c f6 e2 d1 bc 01 f8 b2 3b
       -0.017417388 0.012935112 -0.025620919 0.0054616933
000110 f3 82 59 bd 94 50 4a 3c 6e da 29 bd fa 76 94 bc
       -0.0531034 0.012348313 -0.041468076 -0.018123139
000120 5d 1b 03 bc 06 0e 88 3c 74 c2 13 3e 91 34 cf 3c
       -0.008002129 0.01660825 0.14429647 0.02529362
000130 b5 9a 39 3d 7e 25 16 bd 60 8b e2 bb 03 3f 1e 3c
       0.045313556 -0.03665685 -0.0069135875 0.009658578
000140 c2 2f f6 3c 25 99 62 bd 8a fc c5 bc 5c b2 29 bc
       0.03005207 -0.05532183 -0.024168272 -0.010357466
000150 a7 77 80 3c e3 d1 19 3e f2 0e 6e bd 57 f9 11 bd
       0.015682055 0.15021472 -0.05811972 -0.03563818
000160 ad 43 98 bc ab 05 77 3c fa 05 af bd 96 b2 a7 3c
       -0.018586958 0.015077035 -0.08546062 0.020470899
000170 49 f4 7d 3c 16 98 77 bc e0 09 f4 bc af 7a d0 bd
       0.015500137 -0.015111944 -0.029789865 -0.1017965
000180 c3 4d c2 bd 1c 34 3a bb 31 83 9d 3c 16 23 a4 bc
       -0.09487488 -0.0028412407 0.019227596 -0.020036262
000190 8e 1c f3 3c 23 51 e9 bc 93 6f a0 bb 23 5e 03 3d
       0.029676702 -0.028481072 -0.004896113 0.032072198
0001a0 17 72 9f bc cf ce 3f 3c 60 98 21 bc 5d 42 43 bd
       -0.019463582 0.011707022 -0.009862989 -0.04767071
0001b0 3f bb 36 bd 96 16 a0 bb 1a ea e7 3b 3c 1d 15 bc
       -0.044612166 -0.004885505 0.0070774676 -0.009101208
0001c0 db ed a3 bc b6 d3 55 3c 8d 43 bc 3c 1e e4 13 bd
       -0.02001088 0.013050964 0.02298143 -0.03610622
0001d0 10 a0 80 ba c2 ff 9d 3c 14 1c 92 3b c1 5b 9d 3d
       -0.0009813327 0.019286994 0.0044589136 0.07683516
0001e0 07 25 86 3c 25 ac 87 bc 61 7b 45 3c 2c 08 09 3d
       0.016375078 -0.016561577 0.012053342 0.03345506
0001f0 bd 79 53 bd b8 9e b1 3d e8 42 2c bd e3 25 fe 3d
       -0.05162977 0.08672851 -0.042055994 0.1240957
000200 7f 8b 91 bb 64 7f 83 3d 1e ee 79 bd 83 d6 30 3d
       -0.004441678 0.06420782 -0.061018102 0.043173324
000210 4b e3 15 3c da 18 2e 3b d5 45 31 3c 33 1a 9a 3b
       0.009148429 0.0026565106 0.010819872 0.00470283
000220 a4 e0 81 bd 3e 77 0b 3e f4 6f 90 3d a7 19 de 3d
       -0.06341675 0.13619706 0.07052603 0.108447365
000230 d6 e6 a6 3d ee 9b a8 bc ae 21 78 bb 8b b3 15 be
       0.08149497 -0.020582166 -0.0037861872 -0.14619271
000240 17 73 c3 3c 21 7a 1e be 26 7d a8 3c 84 b1 ea bd
       0.02385859 -0.15476276 0.020567488 -0.1145964
000250 46 d9 a4 bb f9 28 db 3c f3 4a e8 bc 0c 33 25 3c
       -0.005030784 0.026752936 -0.028356051 0.010082971
000260 61 f4 3c 3c e1 c0 49 bc 23 b5 47 3d b8 1d 0c bd
       0.011532874 -0.012314052 0.04875673 -0.03420803
000270 b0 80 b1 3d 65 8d 12 be b4 e6 1c bc 29 15 1a bc
       0.08667123 -0.1431175 -0.009576488 -0.009404459
000280 78 e6 8a 3d e6 34 56 3e 2f 99 26 3e 64 39 fe 3d
       0.0678224 0.20918617 0.16269372 0.1241329
000290 6d d4 48 3e bf 62 c2 3c 1a 4c c7 3d 4f 43 f1 bc
       0.19612284 0.023728726 0.09731312 -0.02945104
0002a0 e5 f3 42 3c 55 65 be bd 1c 18 65 bd d8 28 1b be
       0.011898969 -0.09296671 -0.055931196 -0.151523
0002b0 99 5a 25 bd 67 fc f6 3c fc b9 82 3d aa 1c 5e 3c
       -0.040369604 0.030149652 0.0638313 0.013556639
0002c0 fc 72 92 3c 8e b4 78 bd 8a 05 c2 bd 12 24 09 be
       0.017877094 -0.060719065 -0.09473713 -0.13392666
0002d0 40 4c a8 3d ba 49 90 3b b8 32 41 be f9 05 42 3e
       0.082176685 0.00440332 -0.18867004 0.18947591
0002e0 f8 f3 85 3c 37 ed 3d 3c 9d a0 f3 3d 7b c2 1a bd
       0.016351685 0.011592201 0.11895869 -0.037783127
0002f0 71 60 fc bd e1 d0 0a be bf 58 47 bd 19 4c ee bd
       -0.12323082 -0.13556243 -0.04866862 -0.11635608
000300 65 56 64 3d 2b a0 98 3c ba 3c 6d bc 0e 41 f9 3c
       0.055746455 0.018631062 -0.01447981 0.030426528
000310 1b 76 20 3d 0d c9 ef bd 22 3d ac 3e ec 4e 70 3e
       0.039175134 -0.11708269 0.3364039 0.23467606
000320 f2 88 e0 3d e7 86 81 3e 04 39 52 be 64 b7 db be
       0.1096362 0.25298235 -0.20529562 -0.42913353
000330 31 5c 0c be e2 8f 53 bd 0e 6c b7 be 6e f2 b8 3e
       -0.13707043 -0.05165089 -0.35824627 0.3612246
000340 95 f7 93 3d 73 93 10 bc 85 01 58 3c 0e d2 2b 3e
       0.07224957 -0.008824217 0.013183956 0.16779348
000350 63 a9 65 bd c0 8d fc 3c dd e2 30 be 7b 75 87 3d
       -0.056069743 0.03082931 -0.17274041 0.066142045
000360 f0 59 be 3d 12 a6 d2 3c a0 93 be bd 78 0b 3d be
       0.09294498 0.025713954 -0.09305501 -0.18461406
000370 45 67 21 bb dc 6a 10 3d a4 a1 72 bd 02 62 2f be
       -0.0024628204 0.03525816 -0.059236184 -0.17127231
000380 4f d0 84 bd 2b 4a 89 3d b2 b5 c2 3d 38 e1 41 3d
       -0.06485044 0.067035995 0.09507312 0.047333926
000390 f0 e2 a5 3b 99 38 92 3c 40 c7 31 3e 74 de 5e be
       0.0050624534 0.017849253 0.17361164 -0.21764547
0003a0 df 0a 84 be 7d 0e 11 bc 01 1e 30 bd 21 cb 7b 3d
       -0.25789544 -0.008853552 -0.042997364 0.061473016
0003b0 51 f0 14 be 62 ae b6 3d 03 57 f3 bc b2 ae 1c bc
       -0.14544798 0.0891998 -0.029704576 -0.009563135
0003c0 13 cf ac 3d db 65 1e 3d 19 8d 6c bc f7 11 f3 bd
       0.08437934 0.038671356 -0.014437937 -0.11868661
0003d0 4d 53 60 bd fd 7c 3c bd 84 c9 ec bc 0f 47 83 bc
       -0.05476694 -0.046017636 -0.028904684 -0.016025094
0003e0 1a 45 34 bc 06 41 12 be ee 01 46 bc 5a c5 e4 bd
       -0.011002803 -0.14282617 -0.012085421 -0.11170454
0003f0 5a e9 13 bc 6f 90 14 bd a1 7f 97 3a 30 5f e7 3d
       -0.009027803 -0.036270555 0.0011558422 0.112974524

1.mpn.w1 f4 [4, 64, 64]
000000 a0 6f a7 bd f5 97 60 3d e0 89 c4 3e 48 e5 71 3c
       -0.08175588 0.054832418 0.3838644 0.014764138
000010 bd 1d bf bd 18 03 0a 3f c5 17 d8 3d ce 86 9b 3d
       -0.09331844 0.5391097 0.10551409 0.07594071
000020 ad f2 36 bc 16 f3 08 bf da 0d bb be 11 f9 12 bf
       -0.011166257 -0.5349592 -0.36534005 -0.57411295
000030 13 cc 3c 3b e2 52 0a be 02 ee 50 bd 28 15 5c 3d
       0.002880816 -0.1350818 -0.051008232 0.053731114
000040 f4 b6 80 3c 5b 8a 12 bf a2 0b 2c bf 65 27 70 3d
       0.015712239 -0.57242364 -0.6720525 0.05863132
000050 e0 7f 53 bf cb 00 07 be 30 b4 0f 3e b9 4c 94 be
       -0.82616997 -0.13183896 0.1403358 -0.28964785
000060 54 91 28 3e b3 cf 2e bd c9 8b 3e bf d8 c5 9b bd
       0.16461688 -0.042678546 -0.74432045 -0.07606095
000070 a5 87 dc bd 8d ef 04 3f 3c d8 8f bd 16 16 90 3c
       -0.1076806 0.51928025 -0.07023665 0.017588656
000080 4a 3d 10 3e e3 4f 40 be 66 58 07 3e 6b 72 1d bf
       0.1408588 -0.18780474 0.13217315 -0.6150271
000090 9c f7 db be e0 80 8e bd f6 a0 10 3c 1d 50 18 be
       -0.42962348 -0.06958175 0.008827439 -0.14874311
0000a0 ad 6b b0 bd 03 56 ef bc a2 ce c3 be 34 be 33 bf
       -0.086142875 -0.029215818 -0.38243586 -0.702121
0000b0 83 92 25 3e db b4 93 bd 67 7f 49 3c 1f 0c ac 3e
       0.16169171 -0.0721223 0.0122984415 0.33602998
0000c0 b7 db 41 be 5f 19 d8 bc fa 18 fd 3c 54 c0 42 3d
       -0.18931471 -0.026379285 0.030895699 0.0475467
0000d0 f7 1e 17 bd f0 d7 1a 3d 7b 12 10 bc e4 92 5b bd
       -0.036894765 0.03780359 -0.008793469 -0.053606883
0000e0 2c bd 89 bd bc 06 e5 be e7 61 06 3f f2 84 1f 3c
       -0.06725535 -0.447317 0.5249314 0.0097362865
0000f0 ae 1f af be d7 72 0d bf 3e 82 a8 bd 06 d2 9e 3e
       -0.34203857 -0.55253357 -0.08227967 0.3101961
000100 a3 96 fd 3b 7a 41 94 be 8b 74 79 3e 15 f9 9f bc
       0.0077389046 -0.28956205 0.24360864 -0.019527951
000110 75 ac 7b bf df 8c 58 bd 1c 24 be 3e 53 bc bd bd
       -0.98310024 -0.05286872 0.37136924 -0.092644356
000120 3d f4 04 bd c7 5f 13 bd 2b e5 34 3e ed 26 56 3e
       -0.032459486 -0.035980012 0.17665546 0.20913287
000130 f8 64 06 3f 5f b4 0c bd dc f0 cf be 66 a8 2f bf
       0.52497816 -0.034351703 -0.4061345 -0.6861633
000140 ac 88 ec 3d 8b 54 4b bb ce 57 c1 3e e2 d1 a3 3c
       0.115495056 -0.0031025733 0.37762302 0.01999754
000150 5f 06 fa 3d 9a 3f 07 be 83 d6 f3 3d 76 6b 15 3f
       0.122082464 -0.13207856 0.11906149 0.583671
000160 60 83 1e 3d 75 be a8 3d 2d ff 1b 3e 35 9f c8 be
       0.038699508 0.08239452 0.1523406 -0.39183965
000170 bc 26 9f 3e ce 1d a4 3e f8 e3 59 bb c1 bc c3 3d
       0.3108424 0.3205399 -0.0033247452 0.09557486
000180 e9 62 17 3e f1 9b 2d 3e 8a df 35 3f 6c f0 73 3d
       0.14783825 0.16954018 0.7104422 0.059555456
000190 f9 49 81 bc 29 d8 e3 bc e9 b5 8a bc dc 3e e3 bc
       -0.015782343 -0.027813034 -0.016932445 -0.027739935
0001a0 a3 4b df bd 44 0c f3 3c b1 65 0c 3e d1 26 0b 3e
       -0.109030984 0.029668935 0.13710667 0.13589026
0001b0 fe a3 25 3e e8 8b 28 3e 2a 63 b1 3d b3 d8 f7 3e
       0.1617584 0.1645962 0.08661492 0.48407516
0001c0 e4 0f 00 3c 9c e1 c4 bc bd 75 02 3e 46 1e 0f bd
       0.007816289 -0.02403336 0.12740226 -0.03494098
0001d0 2e 98 e1 bc b1 11 5f bd 4a 01 07 bf 4f f4 29 bc
       -0.027538385 -0.05446023 -0.5273634 -0.010373189
0001e0 ca 28 84 3e fd 4f 90 bf 5c 60 12 3f 41 62 75 bd
       0.2581237 -1.127441 0.5717828 -0.059908155
0001f0 18 71 12 3d 00 d8 1f bf 09 20 0a 3d 0d c0 68 3e
       0.035752386 -0.62438965 0.033721957 0.22729512
000200 50 2b ac bd 7b 74 eb 3d 85 70 d4 3d 76 15 3b bd
       -0.08406699 0.11496826 0.10373024 -0.045674764
000210 3c ac a0 be d1 a1 13 bf e9 c0 88 bb 37 4f 35 3d
       -0.31381404 -0.5766879 -0.0041733873 0.044265
000220 96 e0 87 be ab b8 34 3d ff f3 72 3e e1 f6 fe bd
       -0.26538533 0.044121426 0.2372589 -0.12449432
000230 81 4e c6 be 52 17 96 3b 1d c0 d2 bd 73 e9 97 be
       -0.3873177 0.0045804167 -0.10290549 -0.29670295
000240 9d a5 98 be 4e 6e 8d 3c de 87 12 3d 94 5a f9 3d
       -0.29813853 0.017264511 0.035774104 0.121754795
000250 0c 09 8f be ad 2d 30 3e 0e 11 11 3e 13 9e be be
       -0.2793659 0.17204924 0.14166662 -0.37229976
000260 9c 5b 88 3e 96 ce a2 3e c4 9b b6 3d 0e 12 20 bc
       0.26632392 0.31798238 0.08916429 -0.00976993
000270 f6 37 c9 3d 92 d3 6c bd b8 dd 01 3d c3 78 5a 3b
       0.09825127 -0.057818957 0.031705588 0.003333614
000280 67 26 b4 3d 9c 39 9d 3d 23 9a 2c be 9a f0 f7 3d
       0.08796387 0.07677004 -0.16855673 0.12106438
000290 65 c1 58 3b e6 03 69 3e 0f 81 bd be 9a b5 7f bd
       0.0033074256 0.22755393 -0.37012526 -0.062429048
0002a0 16 78 3d be 70 aa 6f be 87 fd f2 3d 56 ba 34 3e
       -0.1850284 -0.2340486 0.11864763 0.17649207
0002b0 1e 77 0d 3e aa ee 45 bd bc b6 44 3e 22 70 16 3e
       0.13814971 -0.04832331 0.19210333 0.14691213
0002c0 23 3a 40 be 45 c2 33 bd 06 bf 8c bc 8c 0c 58 3c
       -0.18772177 -0.04388644 -0.01718093 0.013186585
0002d0 6a 1a 5b bb ac ad 89 bd a7 90 ae 3e 63 c9 ce 3b
       -0.0033432492 -0.067225784 0.34094736 0.0063106283
0002e0 e8 e3 21 be a6 5b 2f 3e 3e 1d f5 3e 31 9d d8 bd
       -0.15809596 0.17124805 0.47873873 -0.10576857
0002f0 e4 64 7d 3d ea 1c cc bd ba b7 f8 3c 4b 22 8e be
       0.061863795 -0.099664524 0.030361045 -0.27760538
000300 59 1d de 3a 72 db 8f 3d 6b cf fc 3d 63 c7 f9 bc
       0.0016946002 0.07024278 0.12344249 -0.030490583
000310 a1 47 b6 bd 92 60 cc 3e d7 e9 25 be ac a6 83 bb
       -0.08900381 0.39917427 -0.16202484 -0.0040176716
000320 df 0e 86 3c 15 f8 c7 3b 63 4a 7f 3d 77 33 dc bd
       0.016364513 0.0061025717 0.0623268 -0.10752004
000330 c5 25 23 3e bd 44 d3 bc f4 8f ae bd e6 aa dc 3b
       0.15932377 -0.025789613 -0.08523551 0.00673424
000340 0d ed ee 3c c7 30 35 bb 4c 38 bf 3e 61 1c d7 3c
       0.029165769 -0.0027647482 0.3734764 0.02625865
000350 93 58 46 3e 8a 83 e0 bd 48 7c 6d 3d 26 08 3c 3c
       0.19369726 -0.10962589 0.057979852 0.011476552
000360 de f4 00 3d b2 39 e7 3d f5 24 a6 3c 95 b0 03 bd
       0.031483524 0.112903014 0.020281294 -0.032150824
000370 17 3b 02 3e 65 f7 02 3e 87 ba c5 3b 71 3d da 3b
       0.12717853 0.12789686 0.0060341987 0.0066601564
000380 8e a9 bf be 09 49 47 3e 19 65 1d 3e 0f 77 bd bd
       -0.37434047 0.19461454 0.15370597 -0.09251224
000390 ea 68 52 bc 1e 2a af 3e 8f 0f 11 bd 22 f8 04 bd
       -0.012842396 0.3421182 -0.03541523 -0.0324632
0003a0 d5 62 89 3c a3 55 1b bf 38 eb 60 be c9 8b b1 bd
       0.01677076 -0.60677546 -0.21964729 -0.0866924
0003b0 51 b9 39 bd b5 8d c3 bd 7a b9 38 be 84 46 b3 be
       -0.045342747 -0.09548513 -0.18039504 -0.35014737
0003c0 18 1e 12 bd e2 d2 72 bb 6a 77 85 bd b7 22 c5 bc
       -0.03567323 -0.0037051965 -0.06516917 -0.024064405
0003d0 cc a2 a7 3c db 87 f5 bd 01 74 86 3d 05 6d 8c 3c
       0.02046337 -0.11988803 0.06565095 0.017141828
0003e0 ee f2 8d ba 1f 6f dd ba 0f 90 f0 be ca 8a f0 bc
       -0.0010829845 -0.0016894079 -0.46984908 -0.029363055
0003f0 72 37 ce bc d1 73 06 bc f7 d9 a6 bc a0 ec eb 3c
       -0.025172923 -0.008206324 -0.020367606 0.028799355

1.mpn.w2 f4 [4, 91, 64]
000000 f8 69 97 3c 8d 0e f4 bb 59 76 0b bc 62 ef 16 bb
       0.018483147 -0.0074480237 -0.008512103 -0.0023030867
000010 db e8 a7 3b ce 1d 87 bc 83 54 8f bc a8 8d 88 3c
       0.005124194 -0.016493704 -0.017496353 0.01666911
000020 ce 19 11 bb 00 99 47 3c 8a 48 2f bb 13 d2 07 bd
       -0.0022140625 0.012182474 -0.0026746118 -0.033159327
000030 01 28 7f 3c 31 c5 42 3a e9 60 d4 3b 57 c1 78 bc
       0.0155735025 0.00074298965 0.006481279 -0.015182815
000040 1f 92 15 3c 31 c1 f5 bb b5 4c 62 3c 13 4b 0f 3c
       0.009129076 -0.007499837 0.013812234 0.008745926
000050 ed a0 39 3d 0d 44 32 bd d9 52 78 ba f6 05 72 bc
       0.045319486 -0.04352193 -0.00094727945 -0.014771929
000060 20 04 93 3b 41 a9 03 3d 4a be 49 3c cc 5c 62 bc
       0.0044865757 0.032143835 0.012313435 -0.01381607
000070 2a 27 a5 3b 95 ff fe 3b 0d d0 3c 3b 73 aa eb bc
       0.005040069 0.0077819326 0.0028810531 -0.0287678
000080 84 05 b5 3b 9e b0 69 bd 3f 89 0e bc e3 f3 93 3c
       0.005524339 -0.0570532 -0.008699714 0.01806063
000090 be c4 30 3c 46 5a 57 3c 10 52 0d bd 61 ce 34 3d
       0.0107890945 0.013144081 -0.03450209 0.04414213
0000a0 3a 5e 3a bb 18 1e 0c bd 08 83 f4 bb 04 5f 71 3c
       -0.002843751 -0.034208387 -0.007461909 0.014732126
0000b0 19 c8 32 bd 9f 2f 6d bd 4b 21 87 3d 7e 06 9a ba
       -0.04364786 -0.057906743 0.06598147 -0.0011751202
0000c0 e1 3c 4f bd 5c a2 89 bc 75 e2 2b bd 81 4d 6c 3c
       -0.050595168 -0.016801052 -0.041964013 0.014422775
0000d0 29 26 28 bd 38 05 a5 3a 15 d9 cd bc 05 25 53 bb
       -0.041052017 0.0012590056 -0.025127927 -0.003221811
0000e0 23 5a a1 bc 06 41 a2 3d df 43 49 bc c6 81 96 3c
       -0.0196963 0.079225585 -0.012284248 0.018372428
0000f0 85 6b 04 3d d5 7f 8d 3c 4e 91 5e 3d fc ca 5f bb
       0.0323291 0.01727287 0.054337792 -0.0034148088
000100 f4 75 e6 bc b5 14 68 3c 69 c6 20 3c 30 75 c5 bc
       -0.028132416 0.014165093 0.00981293 -0.02410373
000110 f5 33 b7 bb 52 c5 ef bc a9 b9 aa bc 30 fb d2 bb
       -0.0055909106 -0.029268894 -0.020840483 -0.0064386353
000120 58 f3 f5 ba 07 9f 23 3c b1 13 15 bd 21 1b 0f 3d
       -0.0018764539 0.009986646 -0.036395732 0.03493798
000130 12 0a 08 bd a3 4c 2f bd ed f4 46 3d 0b a2 73 3d
       -0.03321273 -0.042797696 0.048573423 0.059480708
000140 86 ae df 3c 3b c6 93 bc 19 34 dd bb ed 8a 58 3c
       0.027304899 -0.01803886 -0.0067505953 0.013216716
000150 ea 3c 92 bd c6 e1 1c 3c 21 86 1a bb 1f 78 8c bc
       -0.07140525 0.009575313 -0.0023578482 -0.017147122
000160 5d d4 d7 3a b5 ba 5d bc 98 96 89 bd c1 54 3a 3b
       0.0016466487 -0.013533284 -0.067181766 0.0028431865
000170 69 63 a2 3c a9 6c 69 bb 45 cd b3 3c c3 7b c5 bd
       0.019822793 -0.0035617745 0.021948466 -0.09642746
000180 50 10 cb bc 23 6b 35 bd d7 3d 14 3d 84 3f 5c bb
       -0.024788052 -0.044291627 0.036191788 -0.0033607194
000190 c0 e0 ea 3a c8 f4 14 bd 3c 60 56 bc 02 c7 95 3d
       0.0017919764 -0.036366254 -0.0130844675 0.07313348
0001a0 88 41 8f bb 99 d7 4a bc 1b 56 94 3c ae 1e ae 39
       -0.0043718256 -0.012380504 0.018107465 0.00033210724
0001b0 53 3a 38 3d e3 e4 f1 bc 2f a2 35 3d 08 4d 58 bc
       0.044977497 -0.029528087 0.044344123 -0.013201959
0001c0 7c cc 7c 3d fe cb c1 3c 5c f1 b1 3c 40 ff 78 3c
       0.06171845 0.023656841 0.021721534 0.015197575
0001d0 1e af 62 3d 74 95 3d 3c f7 c4 a4 3c 49 f4 cc 39
       0.055342786 0.011571277 0.020113451 0.0003909192
0001e0 fa 58 76 bc fe b8 b9 bc 7a 8c be bc 18 ae c4 bb
       -0.015035862 -0.022671219 -0.023260344 -0.006002199
0001f0 06 06 b0 3d 1f fb 01 3d 33 b1 0a 3d 84 51 ea 3d
       0.08594899 0.03173363 0.033860397 0.11441329
000200 69 3d 0f 3d d0 2d 19 bc bd 8a b0 bb 39 4d 9d 3b
       0.034970675 -0.009349301 -0.0053876326 0.0048004654
000210 06 7b f2 3b 83 13 3d bc 55 7e 06 bc 43 6b d9 3a
       0.0073999194 -0.0115402965 -0.008208831 0.0016587753
000220 7a 9e 7f 39 fb 5b 3a 3c fb 5d 07 bc 87 87 9d bc
       0.00024377732 0.011374469 -0.008262153 -0.019229664
000230 66 f8 9c 3c 82 18 5c 3b 7b 24 ad bb 0c 9f 76 bc
       0.019161414 0.0033583944 -0.00528389 -0.015052568
000240 6a e6 77 3c bf da 2b bc 83 08 99 3c 79 e9 20 3c
       0.015130619 -0.010489165 0.018680817 0.009821289
000250 79 8f 47 3d 5b af 17 bd 22 8a 19 3c cc 62 78 bc
       0.04872081 -0.037032466 0.009371312 -0.015160274
000260 50 16 f6 39 ea 7e 9e 3c 56 8b 86 3c d7 d4 c8 bb
       0.000469374 0.019347627 0.016423862 -0.006128888
000270 65 22 3f 3b 5f e8 80 39 82 64 1b bb 54 5c 1b bd
       0.0029164788 0.00024587192 -0.002371103 -0.037929848
000280 40 20 dd bb 34 06 4c bd 05 67 7f bb 69 3e 50 bb
       -0.0067482293 -0.049810603 -0.0038971317 -0.003177548
000290 88 99 60 3c 05 33 5e 3c e9 bb 23 bd 5a 7b 2b 3d
       0.01370848 0.013561969 -0.039974127 0.041865684
0002a0 4c 53 0d bc e0 57 05 bd b7 15 13 bc 41 da 8f 3c
       -0.008625817 -0.032554507 -0.008977345 0.017560126
0002b0 f7 2a c1 bc 1a a5 35 bd f9 79 57 3d 76 ae b0 3b
       -0.023580058 -0.044346906 0.052606557 0.005391891
0002c0 e4 22 33 bd 3d 8c 53 bc 77 5d a8 bc 3d e7 d8 3b
       -0.043734446 -0.012911853 -0.02055238 0.0066193626
0002d0 30 2f 25 bd 65 bc b1 3b 3e 8b 26 bd f9 39 1b bb
       -0.040328205 0.0054240697 -0.040660135 -0.0023685677
0002e0 35 dd 9e bc c2 08 ab 3d 00 29 fb bc ae d8 09 3d
       -0.01939259 0.0835128 -0.030659199 0.033653907
0002f0 bf 44 ba 3c 54 38 c7 3c 10 3b 52 3d 5d 54 2f 3b
       0.022737859 0.024318852 0.051325858 0.0026753165
000300 fc fc 01 bd c0 f9 f2 3b 28 8b d8 bc 80 62 cd bc
       -0.031735405 0.0074150264 -0.026433542 -0.025071383
000310 0a a5 07 bb a8 e0 cc bc f4 9d 0b bc 38 ee 50 3c
       -0.0020697736 -0.025009468 -0.008521546 0.012752108
000320 15 f4 57 bc 29 6b 37 3c 9a 3b 16 bd eb ab a6 3c
       -0.013180752 0.011194983 -0.036677934 0.020345649
000330 8e 40 8d bc 14 6d 1e bd 3a db 0b 3d 94 55 82 3d
       -0.017242696 -0.038678244 0.034144618 0.06363979
000340 d0 2d 91 3c 8e 80 e4 3a f5 e7 9c b8 9d 20 6a 3c
       0.01772204 0.0017433332 -7.481865e-05 0.014290002
000350 f5 10 94 bd 38 79 2d 3a e8 a5 2e 3c 5e 82 54 bc
       -0.07229797 0.0006617489 0.010659672 -0.012970535
000360 67 ec 63 3a 6d 07 e8 3c bb b3 d4 bd 71 fe 21 bc
       0.00086945895 0.028323853 -0.10385843 -0.009887324
000370 3d 59 bb 3c 63 59 42 bc 7c ff 9c 3c 96 34 a5 bd
       0.0228697 -0.011862132 0.019164793 -0.080666706
000380 64 5a 0b bd ce ea 2b bc ab d7 ea 3c 2e 86 ee 3c
       -0.03402175 -0.0104929935 0.028667292 0.029116716
000390 54 61 92 bb 37 81 c6 bc e9 b5 02 bc f8 65 96 3d
       -0.004467169 -0.024231536 -0.007977941 0.07343668
0003a0 d9 12 12 3c ee a6 a8 bc 37 bd b9 3c 4d ac 46 3b
       0.008915626 -0.02058741 0.022673232 0.0030315102
0003b0 22 fe 22 3d 32 5c af bc 40 38 28 3c df 8d 7b bc
       0.03979314 -0.021406267 0.010267317 -0.015353649
0003c0 e1 64 c5 3c 92 eb 3d bb 44 6f 9d bb 13 7a b1 bb
       0.024095954 -0.0028979522 -0.0048045237 -0.0054161637
0003d0 aa e3 89 3d d6 01 fc bc 76 56 06 3b ce 6e 2f bc
       0.067328766 -0.030762594 0.0020498312 -0.01070757
0003e0 57 eb 6f bb 4f 9b 91 bc a5 d2 87 bc f1 07 d6 bc
       -0.003660878 -0.017774252 -0.016579935 -0.026126834
0003f0 4c 80 92 3d 44 b9 6e 3d 50 63 14 3d 07 42 88 3d
       0.07153377 0.05828215 0.036227524 0.06653219
