config/onnx_30_mann8.onnx (onnx, 409797 bytes, 16 tensors)

0.weight f4 [124, 124]
3.7422633 0.0 0.0 0.0 0.0 0.0 0.0 0.0
0.0 0.0 0.0 0.0 0.0 0.0 0.0 0.0
0.0 0.0 0.0 0.0 0.0 0.0 0.0 0.0
0.0 0.0 0.0 0.0 0.0 0.0 0.0 0.0
0.0 0.0 0.0 0.0 0.0 0.0 0.0 0.0
0.0 0.0 0.0 0.0 0.0 0.0 0.0 0.0
0.0 0.0 0.0 0.0 0.0 0.0 0.0 0.0
0.0 0.0 0.0 0.0 0.0 0.0 0.0 0.0
0.0 0.0 0.0 0.0 0.0 0.0 0.0 0.0
0.0 0.0 0.0 0.0 0.0 0.0 0.0 0.0
0.0 0.0 0.0 0.0 0.0 0.0 0.0 0.0
0.0 0.0 0.0 0.0 0.0 0.0 0.0 0.0
0.0 0.0 0.0 0.0 0.0 0.0 0.0 0.0
0.0 0.0 0.0 0.0 0.0 0.0 0.0 0.0
0.0 0.0 0.0 0.0 0.0 0.0 0.0 0.0
0.0 0.0 0.0 0.0 0.0 5.8040633 0.0 0.0
0.0 0.0 0.0 0.0 0.0 0.0 0.0 0.0
0.0 0.0 0.0 0.0 0.0 0.0 0.0 0.0
0.0 0.0 0.0 0.0 0.0 0.0 0.0 0.0
0.0 0.0 0.0 0.0 0.0 0.0 0.0 0.0
0.0 0.0 0.0 0.0 0.0 0.0 0.0 0.0
0.0 0.0 0.0 0.0 0.0 0.0 0.0 0.0
0.0 0.0 0.0 0.0 0.0 0.0 0.0 0.0
0.0 0.0 0.0 0.0 0.0 0.0 0.0 0.0
0.0 0.0 0.0 0.0 0.0 0.0 0.0 0.0
0.0 0.0 0.0 0.0 0.0 0.0 0.0 0.0
0.0 0.0 0.0 0.0 0.0 0.0 0.0 0.0
0.0 0.0 0.0 0.0 0.0 0.0 0.0 0.0
0.0 0.0 0.0 0.0 0.0 0.0 0.0 0.0
0.0 0.0 0.0 0.0 0.0 0.0 0.0 0.0
0.0 0.0 0.0 0.0 0.0 0.0 0.0 0.0
0.0 0.0 4.636501 0.0 0.0 0.0 0.0 0.0
00000000: 3e81 6f40 0000 0000 0000 0000 0000 0000
00000010: 0000 0000 0000 0000 0000 0000 0000 0000
00000020: 0000 0000 0000 0000 0000 0000 0000 0000
00000030: 0000 0000 0000 0000 0000 0000 0000 0000
00000040: 0000 0000 0000 0000 0000 0000 0000 0000
00000050: 0000 0000 0000 0000 0000 0000 0000 0000
00000060: 0000 0000 0000 0000 0000 0000 0000 0000
00000070: 0000 0000 0000 0000 0000 0000 0000 0000
00000080: 0000 0000 0000 0000 0000 0000 0000 0000
00000090: 0000 0000 0000 0000 0000 0000 0000 0000
000000a0: 0000 0000 0000 0000 0000 0000 0000 0000
000000b0: 0000 0000 0000 0000 0000 0000 0000 0000
000000c0: 0000 0000 0000 0000 0000 0000 0000 0000
000000d0: 0000 0000 0000 0000 0000 0000 0000 0000
000000e0: 0000 0000 0000 0000 0000 0000 0000 0000
000000f0: 0000 0000 0000 0000 0000 0000 0000 0000
00000100: 0000 0000 0000 0000 0000 0000 0000 0000
00000110: 0000 0000 0000 0000 0000 0000 0000 0000
00000120: 0000 0000 0000 0000 0000 0000 0000 0000
00000130: 0000 0000 0000 0000 0000 0000 0000 0000
00000140: 0000 0000 0000 0000 0000 0000 0000 0000
00000150: 0000 0000 0000 0000 0000 0000 0000 0000
00000160: 0000 0000 0000 0000 0000 0000 0000 0000
00000170: 0000 0000 0000 0000 0000 0000 0000 0000
00000180: 0000 0000 0000 0000 0000 0000 0000 0000
00000190: 0000 0000 0000 0000 0000 0000 0000 0000
000001a0: 0000 0000 0000 0000 0000 0000 0000 0000
000001b0: 0000 0000 0000 0000 0000 0000 0000 0000
000001c0: 0000 0000 0000 0000 0000 0000 0000 0000
000001d0: 0000 0000 0000 0000 0000 0000 0000 0000
000001e0: 0000 0000 0000 0000 0000 0000 0000 0000
000001f0: 0000 0000 e3ba b940 0000 0000 0000 0000
00000200: 0000 0000 0000 0000 0000 0000 0000 0000
00000210: 0000 0000 0000 0000 0000 0000 0000 0000
00000220: 0000 0000 0000 0000 0000 0000 0000 0000
00000230: 0000 0000 0000 0000 0000 0000 0000 0000
00000240: 0000 0000 0000 0000 0000 0000 0000 0000
00000250: 0000 0000 0000 0000 0000 0000 0000 0000
00000260: 0000 0000 0000 0000 0000 0000 0000 0000
00000270: 0000 0000 0000 0000 0000 0000 0000 0000
00000280: 0000 0000 0000 0000 0000 0000 0000 0000
00000290: 0000 0000 0000 0000 0000 0000 0000 0000
000002a0: 0000 0000 0000 0000 0000 0000 0000 0000
000002b0: 0000 0000 0000 0000 0000 0000 0000 0000
000002c0: 0000 0000 0000 0000 0000 0000 0000 0000
000002d0: 0000 0000 0000 0000 0000 0000 0000 0000
000002e0: 0000 0000 0000 0000 0000 0000 0000 0000
000002f0: 0000 0000 0000 0000 0000 0000 0000 0000
00000300: 0000 0000 0000 0000 0000 0000 0000 0000
00000310: 0000 0000 0000 0000 0000 0000 0000 0000
00000320: 0000 0000 0000 0000 0000 0000 0000 0000
00000330: 0000 0000 0000 0000 0000 0000 0000 0000
00000340: 0000 0000 0000 0000 0000 0000 0000 0000
00000350: 0000 0000 0000 0000 0000 0000 0000 0000
00000360: 0000 0000 0000 0000 0000 0000 0000 0000
00000370: 0000 0000 0000 0000 0000 0000 0000 0000
00000380: 0000 0000 0000 0000 0000 0000 0000 0000
00000390: 0000 0000 0000 0000 0000 0000 0000 0000
000003a0: 0000 0000 0000 0000 0000 0000 0000 0000
000003b0: 0000 0000 0000 0000 0000 0000 0000 0000
000003c0: 0000 0000 0000 0000 0000 0000 0000 0000
000003d0: 0000 0000 0000 0000 0000 0000 0000 0000
000003e0: 0000 0000 0000 0000 375e 9440 0000 0000
000003f0: 0000 0000 0000 0000 0000 0000 0000 0000

0.bias f4 [124]
0.2112701 -0.00037346082 0.20887019 -0.00036738365 0.20645753 -0.00035617553 0.20641953 -0.0003519569
0.20966955 -0.00036033723 -0.0 -0.0 -0.22582448 0.00043058326 -0.23379284 0.0004872905
-0.23553275 0.00054435583 -0.23279068 0.0005934446 -0.22982068 0.00062807486 -0.22864372 0.0006450646
-7.4236536 -9.474464e-09 -10.477031 -6.185504e-09 -16.647778 -4.3831427e-09 -33.337914 -4.4745865e-09
-118.24174 -8.058961e-09 -1.0 2.0187681e-19 -118.11125 -2.5521423e-09 -33.272686 7.1043293e-10
-16.600962 1.3121615e-09 -10.430985 6.353222e-09 -7.378319 9.49956e-09 -5.5716515 1.3399799e-08
-0.15997684 0.00016159292 -0.16356143 0.00017991733 -0.15832612 0.00018986888 -0.15313125 0.00021032922
-0.15842867 0.00025100232 -0.17165586 0.00031031333 -0.18195729 0.0003511002 -0.18368436 0.00036779017
-0.17291932 0.0003548909 -0.16100173 0.00034756318 -0.1574136 0.0003537669 -0.1607692 0.00037108874
-0.2878583 -0.83820724 -0.30212328 1.0281357 0.76491755 0.87792933 -0.28756076 -0.8528236
-0.29843807 1.0279247 0.76414 0.89357597 -5.0566645 -2.153042e-06 8.167607e-07 -0.6568431
-9.12702e-07 1.04592445e-07 1.0479658 2.458806 2.7504714 -0.7769626 1.0479597 2.4588091
2.7504718 -0.7769625 -8.2580686e-05 -8.3745785e-05 -0.00022203507 5.3542662e-05 3.3684984e-05 9.096625e-05
-8.2546685e-05 -8.372784e-05 -0.00022161605 5.3705076e-05 3.3655946e-05 9.0971495e-05 0.00057787145 2.193207e-08
1.5962829e-09 -0.00030594473 6.8796744e-08 -5.1769655e-09 -0.00018865794 -0.00026423996 4.267386e-05 0.0005247407
-0.00018868223 -0.00026433766 4.265298e-05 0.0005247313
00000000: 3057 583e 10cd c3b9 11e2 553e 669d c0b9
00000010: 9a69 533e 12bd bab9 a45f 533e db86 b8b9
00000020: 9db3 563e a5eb bcb9 0000 0080 0000 0080
00000030: 883e 67be e8bf e139 6467 6fbe 067b ff39
00000040: 7f2f 71be 1ab3 0e3a ae60 6ebe 6591 1b3a
00000050: 1d56 6bbe 64a5 243a 9421 6abe 8d19 293a
00000060: 928e edc0 22c5 22b2 eba1 27c1 4588 d4b1
00000070: a62e 85c1 889a 96b1 065a 05c2 e1be 99b1
00000080: c57b ecc2 af73 0ab2 0000 80bf 8655 6e20
00000090: f638 ecc2 c361 2fb1 3b17 05c2 4648 4330
000000a0: c5ce 84c1 9457 b430 51e5 26c1 884b da31
000000b0: 301b ecc0 8233 2332 f84a b2c0 f034 6632
000000c0: f8d0 23be 4571 2939 a67c 27be 31a8 3c39
000000d0: 3e20 22be 8a17 4739 70ce 1cbe d28b 5c39
000000e0: 203b 22be f698 8339 8ec6 2fbe 8db1 a239
000000f0: 0353 3abe df13 b839 c117 3cbe f6d3 c039
00000100: c311 31be a610 ba39 a3dd 24be 2439 b639
00000110: 0831 21be ca79 b939 aea0 24be b08e c239
00000120: 2a62 93be c094 56bf e7af 9abe f399 833f
00000130: a3d1 433f fabf 603f 2a3b 93be a652 5abf
00000140: e0cc 98be 0993 833f ae9e 433f 65c1 643f
00000150: 32d0 a1c0 fb7c 10b6 5e3f 5b35 df26 28bf
00000160: 6700 75b5 4e9c e033 be23 863f 145d 1d40
00000170: b907 3040 05e7 46bf 8b23 863f 215d 1d40
00000180: bb07 3040 04e7 46bf 2b2f adb8 ada0 afb8
00000190: 16d2 68b9 ff92 6038 fa48 0d38 22c5 be38
000001a0: ea1c adb8 0b97 afb8 9b61 68b9 6341 6138
000001b0: cc29 0d38 f3c7 be38 4c7c 173a 2265 bc32
000001c0: 3664 db30 3567 a0b9 69bd 9333 12e1 b1b1
000001d0: 7bd2 45b9 b089 8ab9 b5fc 3238 c18e 093a
000001e0: 00d9 45b9 cd96 8ab9 4ae6 3238 1f8e 093a

1.gn.w0 f4 [32, 124]
0.009572393 -0.07981502 -0.04743485 -0.12153046 0.0019601465 -0.24501975 -0.059722267 -0.4260555
-0.11247353 -0.28623247 -0.007933712 -0.14442305 -0.09894114 0.08743309 -0.0055031152 0.05532095
0.16258222 -0.1014609 0.049025174 -0.004192963 0.12636839 0.035419036 0.04665742 0.05185223
0.034443498 -0.07258487 -0.07415609 -0.047201287 0.094413064 -0.053708535 0.006303645 0.06284993
-0.03218424 0.045897756 0.01251492 -0.0035970872 0.068358295 -0.052203752 -0.058725107 0.05071909
-0.018927466 0.118518196 -0.074756674 0.04976604 0.06566462 0.08348467 0.0149927 0.016406046
-0.011268023 -0.10485138 0.006097443 -0.04201714 0.028604142 0.036297597 0.032281477 -0.0008287212
0.07964128 0.096799545 -0.11019164 -0.030531859 0.012396967 0.032437384 0.04752961 -0.049990255
-0.033107344 0.027759312 -0.0074167796 0.012931115 0.027406754 0.13471086 -0.05671856 -0.011517075
0.007429455 -0.18765561 -0.012862848 0.19860163 0.056421258 0.19245078 0.15974207 0.20390376
0.034962445 -0.26776743 -0.092650354 -0.26221585 0.07797432 0.14304484 -0.06868775 0.024057467
-0.07424026 0.11735468 0.03541887 0.11614264 0.086987376 -0.11536092 0.01579901 -0.027334418
-0.09349992 0.060138445 0.094524585 0.027707057 -0.14449294 0.088459104 0.04397632 0.046146177
0.080318645 -0.065811284 -0.10130642 -0.0075592003 0.08645941 0.023718739 0.060738917 -0.047483683
-0.049014755 -0.0622066 0.119639285 0.04721942 -0.040292382 0.08511233 -0.022480851 -0.049315583
-0.040861886 0.033908073 -0.016122824 0.015553553 0.08167575 0.004715492 0.05085791 0.109412394
-0.056820244 0.07277153 0.024820613 0.07397051 -0.043238133 0.2030632 -0.05422999 0.14296402
0.058749538 0.04227565 -0.019567704 0.16681638 0.015986195 0.42788988 0.096605085 0.36255687
-0.09374133 0.23716739 0.018816004 0.2128677 -0.04527749 0.10419581 0.047150757 -0.009996347
0.074177586 0.075226374 -0.11177159 0.06746802 -0.022994088 0.0030350634 0.0033513627 -0.03134604
0.005405512 -0.09181363 -0.09285364 0.00991271 0.017980352 -0.033804238 0.035334453 -0.09109877
0.07050712 -0.07548819 -0.0064051263 -0.13301665 0.0031896902 0.041745353 -0.029766873 0.0057075494
0.02653113 -0.078340605 -0.027870353 0.025350878 0.04091737 -0.07900464 -0.03558779 -0.107040174
5.4609838e-05 0.15311056 0.029768875 0.30193445 -0.019026373 0.026346384 -0.0028577407 -0.015754484
0.012247597 -0.03722454 0.019692509 -0.093748406 -0.0630929 -0.016739331 0.0027362083 -0.11775483
-0.109753184 0.01533541 -0.12877095 -0.30321443 0.012292246 0.23300277 -0.035738274 0.3183872
-0.043644175 -0.06326041 -0.03935062 -0.17076007 -0.15940411 0.05539475 -0.045571383 -0.06912223
-0.0072367587 -0.05377747 -0.06889469 0.012489253 -0.039487198 -0.14536555 0.2230435 0.03334193
-0.10473548 0.013862781 0.15476964 0.089619055 -0.058208868 -0.0651485 -0.07782983 0.030463077
-0.10919063 -0.12320157 0.021601764 -0.011110249 -0.034456875 -0.08779651 0.033191405 0.06513003
0.024942208 -0.017438134 -0.028047182 -0.016873555 0.005288263 0.057114538 0.0030248722 0.0217156
-0.0071401056 -0.09293915 0.13042307 -0.052766617 0.16509837 -0.024640655 0.2342095 -0.18045546
00000000: 87d5 1c3c 0f76 a3bd 0c4b 42bd f6e4 f8bd
00000010: cd75 003b 75e6 7abe 569f 74bd f223 dabe
00000020: 8658 e6bd 108d 92be 66fc 01bc a3e3 13be
00000030: a7a1 cabd 1f10 b33d 7a53 b4bb 3898 623d
00000040: f47b 263e bbca cfbd 9fce 483d 1f65 89bb
00000050: b766 013e 8d13 113d da1b 3f3d 0163 543d
00000060: a014 0d3d 60a7 94bd 26df 97bd 2356 41bd
00000070: a35b c13d 7bfd 5bbd cf8e ce3b 77b7 803d
00000080: 9fd3 03bd 49ff 3b3d 610b 4d3c 1cbd 6bbb
00000090: 6fff 8b3d 9ad3 55bd bd89 70bd d2be 4f3d
000000a0: c60d 9bbc abb9 f23d 071a 99bd 7ad7 4b3d
000000b0: 2c7b 863d 03fa aa3d f1a3 753c f965 863c
000000c0: 849d 38bc 52bc d6bd 0fcd c73b 2a1a 2cbd
000000d0: 3c53 ea3c caac 143d 9539 043d 8a3e 59ba
000000e0: f81a a33d d73e c63d 28ac e1bd f31d fabc
000000f0: a61c 4b3c 10dd 043d 69ae 423d 95c2 4cbd
00000100: 919b 07bd 7f67 e33c 7508 f3bb 07dd 533c
00000110: 2184 e03c a5f1 093e b951 68bd 1db2 3cbc
00000120: c972 f33b cb28 40be b2be 52bc 3a5e 4b3e
00000130: fa19 673d d111 453e 6d93 233e 26cc 503e
00000140: c834 0f3d d018 89be 78bf bdbd 2841 86be
00000150: 00b1 9f3d 597a 123e 2aac 8cbd 2a14 c53c
00000160: 470b 98bd a757 f03d 6113 113d 31dc ed3d
00000170: 7026 b23d 5942 ecbd ed6c 813c 6eec dfbc
00000180: e37c bfbd bb53 763d 1b96 c13d e9f9 e23c
00000190: f5f5 13be 0c2a b53d 8420 343d c603 3d3d
000001a0: 1a7e a43d 11c8 86bd be79 cfbd 2bb3 f7bb
000001b0: a211 b13d cd4d c23c 5fc9 783d 407e 42bd
000001c0: b2c3 48bd 59cc 7ebd 7105 f53d 2769 413d
000001d0: a009 25bd 604f ae3d c329 b8bc 23ff 49bd
000001e0: cb5e 27bd 31e3 0a3d 0314 84bc 54d4 7e3c
000001f0: 9e45 a73d 6a84 9a3b 6250 503d 9b13 e03d
00000200: 58bc 68bd 3d09 953d 9954 cb3c da7d 973d
00000210: 781a 31bd cdef 4f3e 4420 5ebd 2965 123e
00000220: 5ba3 703d 3b29 2d3d 734c a0bc ead1 2a3e
00000230: 7bf5 823c 6214 db3e e3d8 c53d 0ea1 b93e
00000240: 74fb bfbd 02dc 723e 0524 9a3c fef9 593e
00000250: e474 39bd 9d64 d53d 2721 413d b8c7 23bc
00000260: 6bea 973d 4910 9a3d 81e8 e4bd ac2c 8a3d
00000270: 195e bcbc eae7 463b 89a2 5b3b b564 00bd
00000280: b920 b13b c908 bcbd 0d2a bebd eb68 223c
00000290: 884b 933c 5076 0abd dcba 103d fe91 babd
000002a0: 0966 903d 8d99 9abd 18e2 d1bb 8435 08be
000002b0: 1f0a 513b 2dfd 2a3d a8d9 f3bc 6506 bb3b
000002c0: d057 d93c 0a71 a0bd 5e50 e4bc a5ac cf3c
000002d0: f998 273d 2fcd a1bd 81c4 11bd e137 dbbd
000002e0: de0c 6538 04c9 1c3e dbdd f33c 2797 9a3e
000002f0: 32dd 9bbc 5fd4 d73c ef48 3bbb 8c0f 81bc
00000300: 25aa 483c c278 18bd 2f52 a13c 2aff bfbd
00000310: da36 81bd ec20 89bc f551 333b 7229 f1bd
00000320: 47c6 e0bd 5f41 7b3c 88dc 03be ec3e 9bbe
00000330: 6b65 493c 4798 6e3e 4c62 12bd a603 a33e
00000340: 3cc4 32bd ad8e 81bd 1e2e 21bd badb 2ebe
00000350: d53a 23be 9be5 623d 0fa9 3abd f58f 8dbd
00000360: 5522 edbb c445 5cbd a918 8dbd b99f 4c3c
00000370: 54bd 21bd b5da 14be 8465 643e 8c91 083d
00000380: 8e7f d6bd b820 633c ef7b 1e3e 328a b73d
00000390: 6c6c 6ebd 946c 85bd 3f65 9fbd b48d f93c
000003a0: 569f dfbd 1b51 fcbd 2ff6 b03c c307 36bc
000003b0: a722 0dbd a8ce b3bd b6f3 073d e562 853d
000003c0: 9a53 cc3c 6bda 8ebc 34c3 e5bc 693a 8abc
000003d0: 2a49 ad3b eff0 693d ef3c 463b eae4 b13c
000003e0: 8cf7 e9bb e256 bebd a08d 053e cf21 58bd
000003f0: 8c0f 293e 33db c9bc 9dd4 6f3e 51c9 38be

1.gn.w1 f4 [32, 32]
0.04911811 0.14252725 0.10419143 0.033718787 -0.021719284 0.058504697 0.013653192 0.07973874
0.14400887 0.014822673 0.30175826 0.0066813002 0.06080216 0.047649764 0.0050625047 0.28162605
-0.12011845 -0.0723139 0.13099165 -0.097491354 -0.056808487 -0.068322085 0.108866766 -0.093864225
-0.09468942 -0.11279416 0.097534604 0.14630255 -0.0776413 0.17534156 -0.014423409 -0.10504879
-0.09632287 -0.18194997 -0.14696331 0.01975523 -0.017924251 -0.06610367 0.22889154 0.030607248
-0.08378844 0.14574519 -0.24449968 -0.050123893 0.33280444 -0.20604694 -0.1542354 0.025988655
0.22007513 0.020929873 -0.13258283 -0.025090143 -0.27443695 -0.2237498 -0.23144588 -0.12947923
0.0509469 0.1348012 -0.11338183 -0.03797245 -0.14008142 0.16060649 -0.0813657 0.045859996
0.29513764 -0.066309586 0.06645439 0.32455227 0.102105886 0.18170369 0.08155839 -0.09549019
0.067695014 -0.11881995 0.027571166 0.22639759 -0.2552011 0.041099865 0.07307878 -0.04621918
0.2406034 0.18390086 -0.21506888 0.087805144 0.1859609 0.0704429 0.087613925 -0.30324367
0.34541818 -0.17354862 0.3037616 -0.06079171 -0.062814906 -0.007646133 -0.10725614 -0.02930807
0.038643636 0.055191625 -0.24768019 -0.09289279 -0.008555355 -0.2202341 0.02248227 0.13504043
-0.18642883 0.040074095 -0.014217742 0.07610086 -0.017582254 -0.05361747 0.19812477 -0.022949835
0.08260531 0.2173831 0.018176083 -0.23282178 -0.22251776 -0.061592378 -0.022424454 -0.054920416
0.052029323 0.13961798 0.015144235 -0.037009295 -0.22662704 0.04157341 0.14658222 0.033371564
0.029741757 -0.40560362 -0.09852723 -0.14591104 -0.15520841 -0.29724735 0.06727228 0.016398337
-0.20411767 0.19870684 -0.23051807 0.13037513 0.051374402 0.03195521 -0.010763307 -0.17542145
0.08570002 0.01020259 -0.32955176 0.022143763 -0.25831917 0.16373536 -0.06594191 -0.08541121
0.18700653 0.18937147 0.06519697 -0.35230124 -0.1560193 -0.42598388 -0.1550662 0.12714669
-0.10327589 0.06157923 0.12011376 0.14655863 0.18614328 0.27772576 -0.011434283 -0.31097785
0.25127923 0.1698666 -0.4508125 -0.01823205 0.066446885 -0.20347388 -0.4361202 -0.32357758
-0.16247901 -0.2756404 -0.09583339 0.35500616 -0.10697765 -0.16446362 -0.04332037 -0.1801583
0.08935836 0.038770113 -0.2893367 -0.1825748 0.057021935 0.015891045 -0.19894227 -0.0041859755
-0.025533644 0.055497725 0.04724012 -0.11311139 -0.14435583 0.21875633 0.0355044 -0.051601127
0.06976242 0.104989566 -0.010836026 -0.12585948 -0.007288903 0.088873185 -0.010939795 0.1887946
0.13618416 0.021505604 0.12150669 -0.019791044 0.15819885 -0.09348642 -0.0057027475 0.2591101
-0.00318647 -0.052760616 -0.09905106 0.24253488 -0.14254235 0.20216842 0.032816965 -0.14946862
0.0741873 0.14957045 -0.010723555 -0.04231863 -0.06356722 -0.19068982 -0.10486193 0.028381946
0.10910927 -0.08187663 0.3520393 0.017938126 -0.20829692 0.2165756 0.14038078 0.22386658
-0.17978336 -0.12621261 -0.106900625 -0.037233446 0.06462162 -0.107425235 0.3146494 -0.17501248
-0.012554248 -0.005783686 0.22377259 0.08101428 0.08642781 0.005630601 -0.026062999 -0.1103575
00000000: 1230 493d aaf2 113e 5162 d53d b61c 0a3d
00000010: a4ec b1bc 9fa2 6f3d a3b1 5f3c 114e a33d
00000020: 1077 133e ccda 723c 0f80 9a3e cfee da3b
00000030: b00b 793d 662c 433d 5ee3 a53b 4a31 903e
00000040: a900 f6bd 4f19 94bd ad22 063e 8ca9 c7bd
00000050: 04b0 68bd 73ec 8bbd 8af5 de3d e33b c0bd
00000060: 87ec c1bd a000 e7bd 39c0 c73d 56d0 153e
00000070: 6702 9fbd bd8c 333e 2950 6cbc d223 d7bd
00000080: ed44 c5bd 1851 3abe 8d7d 16be b8d5 a13c
00000090: e1d5 92bc 5c61 87bd 8b62 6a3e 0dbc fa3c
000000a0: 4699 abbd 3a3e 153e 205e 7abe b64e 4dbd
000000b0: 5865 aa3e f8fd 52be e2ef 1dbe 29e6 d43c
000000c0: 605b 613e 2075 ab3c cbc3 07be d889 cdbc
000000d0: 0083 8cbe ab1e 65be 2600 6dbe 3496 04be
000000e0: b2ad 503d 5309 0a3e bc34 e8bd 0089 1bbd
000000f0: 8171 0fbe 0776 243e 0fa3 a6bd b1d7 3b3d
00000100: 481c 973e 52cd 87bd 3d19 883d b72b a63e
00000110: e41c d13d 8810 3a3e 1608 a73d 5c90 c3bd
00000120: afa3 8a3d e057 f3bd eddc e13c c5d4 673e
00000130: b8a9 82be 5558 283d 54aa 953d 5350 3dbd
00000140: bd60 763e 8250 3c3e 043b 5cbe 2fd3 b33d
00000150: 896c 3e3e 5e44 903d ee6e b33d c142 9bbe
00000160: a7da b03e bbb6 31be a486 9b3e ba00 79bd
00000170: 1aa5 80bd 6a8c fabb 1ba9 dbbd 7a17 f0bc
00000180: ca48 1e3d 9d10 623d e09f 7dbe 933e bebd
00000190: c22b 0cbc 0c85 61be bd2c b83c 0a48 0a3e
000001a0: 33e7 3ebe bc24 243d 88f1 68bc c5da 9b3d
000001b0: a908 90bc fe9d 5bbd 38e1 4a3e 4b01 bcbc
000001c0: f92c a93d ad99 5e3e 02e6 943c d568 6ebe
000001d0: b2db 63be 4a48 7cbd 7db3 b7bc 3bf4 60bd
000001e0: b31c 553d 04f8 0e3e 871f 783c 0f97 17bd
000001f0: eb10 68be e148 2a3d a619 163e 9fb0 083d
00000200: fca4 f33c 47ab cfbe a5c8 c9bd b469 15be
00000210: f4ee 1ebe ce30 98be 0dc6 893d ce55 863c
00000220: 3904 51be ce79 4b3e ee0c 6cbe 0f81 053e
00000230: f76d 523d 77e3 023d 9558 30bc aea1 33be
00000240: 7e83 af3d c428 273c 02bb a8be d666 b53c
00000250: 6942 84be 3eaa 273e 8d0c 87bd 13ec aebd
00000260: a47e 3f3e 98ea 413e fd85 853d d460 b4be
00000270: 86c3 1fbe 8f1a dabe adc9 1ebe be32 023e
00000280: 4f82 d3bd 813a 7c3d 34fe f53d 7713 163e
00000290: 589c 3e3e 1232 8e3e dc56 3bbc 7d38 9fbe
000002a0: aca7 803e 83f1 2d3e e5d0 e6be 615b 95bc
000002b0: 4e15 883d 755b 50be 264b dfbe f6ab a5be
000002c0: e660 26be bd20 8dbe 4c44 c4bd 5ec3 b53e
000002d0: 1917 dbbd 2769 28be b370 31bd 6b7b 38be
000002e0: 8401 b73d 69cd 1e3d f123 94be e3f4 3abe
000002f0: d58f 693d f02d 823c 86b7 4bbe 822a 89bb
00000300: ef2b d1bc 9551 633d db7e 413d f2a6 e7bd
00000310: 04d2 13be a901 603e 106d 113d b45b 53bd
00000320: 9adf 8e3d c504 d73d 9689 31bc 4fe1 00be
00000330: c0d7 eebb 2503 b63d d33c 33bc 5f53 413e
00000340: dc73 0b3e 852c b03c 80d8 f83d d420 a2bc
00000350: e1fe 213e cf75 bfbd 1dde babb 14aa 843e
00000360: 18d4 50bb 841b 58bd 48db cabd 105b 783e
00000370: 9ff6 11be 3d05 4f3e 156b 063d 4d0e 19be
00000380: 83ef 973d ff28 193e dab1 2fbc 4d56 2dbd
00000390: 882f 82bd 3144 43be dac1 d6bd 4181 e83c
000003a0: ae74 df3d efae a7bd 7f3e b43e faf2 923c
000003b0: ca4b 55be fec5 5d3e fbbf 0f3e 483d 653e
000003c0: 2119 38be e13d 01be b7ee dabd 1982 18bd
000003d0: 5758 843d c301 dcbd ba19 a13e 7936 33be
000003e0: 55b0 4dbc 1385 bdbb a424 653e d1ea a53d
000003f0: 1001 b13d e880 b83b 1282 d5bc 1d03 e2bd

1.gn.w2 f4 [4, 32]
0.07597835 -0.14157277 0.011470256 -0.15506299 0.15300176 -0.19118968 -0.032948304 0.03423889
0.059321597 0.040745456 -0.3061274 0.11946372 0.26315176 0.12644611 -0.081632294 -0.1351337
-0.3372029 -0.120957024 0.25076187 -0.16671334 -0.082015514 -0.040043045 -0.089715235 -0.25318986
-0.20405985 -0.09357706 0.13176963 -0.08945591 0.07810477 0.21714793 0.0949036 0.19352882
0.040708832 -0.107667334 -0.003341382 0.07819949 0.233214 -0.32493508 -0.13272049 0.03425022
0.009945798 0.2998236 -0.080860786 -0.042967133 0.26449987 0.12849727 0.11499525 -0.14205573
-0.32399756 -0.015005139 0.25800943 -0.17033713 -0.08433165 -0.17975046 -0.05103169 0.055510122
-0.06762381 -0.15040131 -0.020492444 0.23743214 -0.15953687 -0.08555623 0.10335686 0.011737361
-0.04489069 -0.024430256 0.008367474 -0.016865414 0.23312268 -0.1911048 -0.10817501 -0.08346499
0.10695103 0.033160698 -0.31497857 0.10706083 0.28075057 -0.0063767466 0.07641534 -0.1343476
-0.46939048 -0.009953574 0.09057694 -0.18080221 0.004835352 -0.090292186 -0.04873916 -0.26302195
-0.06893243 -0.16707508 0.07629277 -0.09615157 0.07810012 0.2185191 -0.018095184 0.19197835
0.07120624 -0.035297688 -0.1483251 0.07702175 0.16113171 -0.30917427 -0.019196633 0.004758942
0.10634176 0.29983348 -0.18505321 -0.04397034 0.13315986 0.007751982 0.11495384 -0.2820771
-0.32485315 -0.043790653 0.25969708 -0.28002453 0.006808537 -0.042133182 -0.16010807 0.05441941
-0.06628667 -0.15473972 0.14459269 0.23634513 -0.15701911 -0.08145099 -0.028540572 0.17769608
00000000: 8a9a 9b3d 74f8 10be beed 3b3c d5c8 1ebe
00000010: 7eac 1c3e 3ac7 43be cdf4 06bd 143e 0c3d
00000020: 34fb 723d b5e4 263d bbbc 9cbe 65a9 f43d
00000030: d4bb 863e 177b 013e d52e a7bd 7d60 0abe
00000040: dca5 acbe 51b8 f7bd dc63 803e e7b6 2abe
00000050: c0f7 a7bd 2d04 24bd 9fbc b7bd 1aa2 81be
00000060: 11f5 50be 54a5 bfbd 9eee 063e a934 b7bd
00000070: 65f5 9f3d 075c 5e3e d25c c23d 6b2c 463e
00000080: 4ebe 263d b180 dcbd 16fb 5abb 0e27 a03d
00000090: a7cf 6e3e e45d a6be e1e7 07be f549 0c3d
000000a0: b3f3 223c 7b82 993e 579a a5bd 4efe 2fbd
000000b0: 876c 873e ca94 033e a182 eb3d 0f77 11be
000000c0: 02e3 a5be 1dd8 75bc d019 843e db6c 2ebe
000000d0: 12b6 acbd 8110 38be 9b06 51bd 955e 633d
000000e0: 5a7e 8abd cd02 1abe c5df a7bc 6921 733e
000000f0: a25d 23be 1b38 afbd c3ac d33d 0f4e 403c
00000100: 4ddf 37bd f621 c8bc bb17 093c 5629 8abc
00000110: b6b7 6e3e fab0 43be dc8a ddbd b1ef aabd
00000120: 2409 db3d 83d3 073d df44 a1be b542 db3d
00000130: 8abe 8f3e 07f4 d0bb a57f 9c3d 6b92 09be
00000140: f353 f0be 5114 23bc 6780 b93d 3724 39be
00000150: df71 9e3b 1ceb b8bd b7a2 47bd d0aa 86be
00000160: 722c 8dbd bb15 2bbe 623f 9c3d 1deb c4bd
00000170: f5f2 9f3d 79c3 5f3e 5a3c 94bc f995 443e
00000180: 94d4 913d 4f94 10bd 89e2 17be 94bd 9d3d
00000190: b6ff 243e 174c 9ebe 4242 9dbc e6f0 9b3b
000001a0: b5c9 d93d c683 993e 977e 3dbe 3e1a 34bd
000001b0: 0f5b 083e 5704 fe3b eb6c eb3d 696c 90be
000001c0: 2753 a6be d45d 33bd 04f7 843e 605f 8fbe
000001d0: 261a df3b d893 2cbd 5ff3 23be e3e6 5e3d
000001e0: 4ec1 87bd 1774 1ebe 1b10 143e 7504 723e
000001f0: 9ec9 20be c7cf a6bd ebcd e9bc f6f5 353e

1.gn.b0 f4 [32, 1]
-0.5106185 0.11869079 -0.2587711 0.32644257 0.06528233 -0.12426903 -0.38998196 -0.6834773
-0.2692007 -0.3047651 0.27950433 0.11927104 -0.4989548 -0.11416429 -0.6739091 -0.025548216
-0.30147332 -0.27490935 0.07970623 0.15327257 0.017658615 -0.61360234 -0.11601108 -0.72856677
-0.28104758 -0.09726777 -0.26794308 -0.0626999 0.06603252 -0.17432353 -0.5543316 -0.5763105
00000000: e5b7 02bf 2814 f33d a57d 84be 7b23 a73e
00000010: beb2 853d c380 febd b7ab c7be 5ef8 2ebf
00000020: add4 89be 2c0a 9cbe 311b 8f3e 6044 f43d
00000030: 0177 ffbe f8ce e9bd 4f85 2cbf 7e4a d1bc
00000040: b65a 9abe ebc0 8cbe 053d a33d 7cf3 1c3e
00000050: cda8 903c 0b15 1dbf 3897 edbd 5a83 3abf
00000060: 78e5 8fbe 5334 c7bd d62f 89be ce68 80bd
00000070: 0f3c 873d de81 32be ade8 0dbf 1689 13bf

1.gn.b1 f4 [32, 1]
0.0771975 -0.20781225 0.17255674 -0.058992032 -0.17196363 0.15421796 -0.22146791 0.05228848
0.015126363 -0.51568896 -0.5586966 0.017716527 0.207437 0.028774824 -0.004201805 0.3641083
-0.105398275 -0.317103 0.3233976 0.097872965 -0.16186385 -0.00194939 -0.20448808 -0.58213925
0.14857937 -0.031189198 -0.3351932 -0.45112875 0.024749627 0.16023128 -0.15936086 0.2739389
00000000: b919 9e3d bccc 54be b7b2 303e a1a1 71bd
00000010: 3c17 30be 50eb 1d3e 7cc8 62be 722c 563d
00000020: 91d4 773c 3104 04bf be06 0fbf 4022 913c
00000030: 5d6a 543e 2eb9 eb3c 4caf 89bb 676c ba3e
00000040: 0ddb d7bd 535b a2be 5f94 a53e 9f71 c83d
00000050: a3bf 25be ad82 ffba 5365 51be 1407 15bf
00000060: 3125 183e 7d80 ffbc 719e abbe 59fa e6be
00000070: bbbf ca3c ab13 243e 7e2f 23be b841 8c3e

1.gn.b2 f4 [4, 1]
0.1530165 -0.307994 -0.035479166 -0.17782882
00000000: 5bb0 1c3e 64b1 9dbe 9a52 11bd c218 36be

1.mpn.w0 f4 [4, 64, 124]
-0.03996102 -0.030111138 -0.02858648 -0.0068989983 -0.023877501 0.0074425125 -0.031078903 0.013021891
-0.005836292 0.0003664432 -0.02455638 -0.015942542 -0.016812287 -0.0018304968 -0.01249323 0.008251258
-0.021922525 0.008961593 -0.024137378 -0.0025097188 -0.015652128 -0.002063514 0.0048913714 -0.0019821723
0.015877543 0.007424862 -0.00087158004 0.016787753 0.0047284793 0.051723983 -0.016180469 0.069468066
-0.017986408 0.025177902 -0.00067515357 0.0022932934 0.0069528758 0.007057491 -0.001593903 0.15254548
-0.005558231 0.26906043 -0.006949993 0.33177647 -0.025342358 0.34496307 -0.023845732 0.32431132
0.01865556 0.024106724 0.027115053 0.016715975 -0.004091602 0.00072646275 0.043649882 -0.006402981
0.01883144 -0.017267715 -0.008726776 -0.007917828 -0.03591082 -0.0013769293 -0.011486098 0.015963402
-0.02705342 0.0036850497 -0.0069203433 0.004382203 -0.009210082 0.0046391487 0.02060301 0.018602373
0.04620272 0.04549965 0.1672393 -0.029477902 -0.008276477 -0.06529604 -0.06258522 0.022474725
-0.15047087 0.00015672883 -0.04082997 -0.009947095 0.060348894 0.16107632 0.07320853 -0.02573831
0.07424008 -0.10791246 -0.23818593 0.19927223 0.017938249 -0.04812992 -0.17434233 -0.079572655
-0.0581431 -0.044876218 0.013074576 0.007207085 0.009520847 -0.0015971424 0.00881577 -0.016344193
-0.0076484215 0.021392422 0.013354036 -0.002027853 0.016201507 -0.01864237 0.006702896 0.024665743
-0.006208271 -0.0068251216 0.010359131 -0.003640489 -0.028042024 0.028435882 -0.008808914 0.018188514
-0.00022946592 -0.0026156914 0.022825357 0.008704396 -0.015717017 0.033567216 -0.014069797 0.0413411
-0.018195461 0.06351616 -0.025889449 0.096623175 -0.024061147 0.116149865 0.010819872 0.00470283
0.025962994 -0.01823924 0.045447826 -0.01657443 0.044813644 -0.030522443 0.036450528 -0.038178775
0.03489769 -0.06416415 0.031752482 -0.077031 -0.017929832 -0.00954786 -0.018539235 0.0033877098
-0.016702345 0.011662209 0.0063438416 0.010699969 0.051523697 -0.058447484 -0.0027559507 0.0011787863
-0.0050568986 0.03878715 0.016328529 -0.0013144303 0.00024766396 -0.011677364 -0.008290434 -0.03592211
-0.027259562 -0.0579266 -0.029039834 -0.08939373 -0.014240606 0.0033689027 -0.004603185 0.011889188
0.011405154 0.014720493 0.005104405 -0.017159292 0.013341045 -0.04660256 -0.07727138 0.111181214
0.025500916 0.0021493433 0.024422541 -0.003073285 -0.0072855963 -0.006022807 0.014025318 -0.013188802
-0.0021061148 -0.006145866 -0.008609076 -0.005052243 -0.0027021219 -0.040955562 0.23862512 0.11846389
0.14916639 0.07928793 -0.06197846 -0.07490337 0.11681433 0.01001037 -0.060575902 0.058661595
0.073019154 0.07034668 -0.09519964 0.06232335 -0.009522362 0.0021076617 -0.29180568 -0.10167449
0.21360615 0.033107433 -0.1570317 -0.07066382 -0.0756815 0.050016277 -0.021870986 -0.013230157
-0.0027688383 0.061271243 0.06438694 0.015363033 0.021381844 0.031176914 0.024104014 -0.073437706
-0.08042328 -0.030977916 0.004322545 0.026379252 -0.024364838 0.05516211 -0.020844921 0.016720636
-0.014115044 -0.022928618 0.033315815 -0.01815405 0.012125876 0.0073206048 -0.03900664 -0.048238736
0.01395407 -0.03220515 0.0011291748 -0.02106745 -0.016783837 -0.00819577 -0.004252707 -0.005844713
00000000: 2bae 23bd a2ab f6bc 322e eabc fe10 e2bb
00000010: c09a c3bc 52e0 f33b 2f99 febc c559 553c
00000020: 5e3e bfbb 2c1f c039 762a c9bc ef99 82bc
00000030: ecb9 89bc 48ed efba 68b0 4cbc 4930 073c
00000040: de96 b3bc a5d3 123c c0bb c5bc 187a 24bb
00000050: e438 80bc 053c 07bb cc47 a03b 55e7 01bb
00000060: 9f11 823c 424c f33b bf7a 64ba 7886 893c
00000070: 5cf1 9a3b 87dc 533d e78c 84bc 4645 8e3d
00000080: 3b58 93bc e341 ce3c cafc 30ba 144b 163b
00000090: f3d4 e33b 8742 e73b 83ea d0ba e234 1c3e
000000a0: d221 b6bb 4ac2 893e c4bc e3bb 9bde a93e
000000b0: c79a cfbc 009f b03e 2058 c3bc 220c a63e
000000c0: 8cd3 983c 777b c53c 6320 de3c f1ef 883c
000000d0: d812 86bb 1770 3e3a 38ca 323d 19d0 d1bb
000000e0: 6444 9a3c 0675 8dbc c0fa 0ebc c7b9 01bc
000000f0: 3917 13bd 157a b4ba 3030 3cbc aec5 823c
00000100: 229f ddbc e080 713b 0cc4 e2bb 9598 8f3b
00000110: e2e5 16bc 0004 983b a5c7 a83c 0164 983c
00000120: 103f 3d3d d75d 3a3d c740 2b3e a47b f1bc
00000130: 109a 07bc eeb9 85bd ae2c 80bd ea1c b83c
00000140: 0915 1abe 9357 2439 543d 27bd 24f9 22bc
00000150: 6730 773d 31f1 243e 5bee 953d 26d9 d2bc
00000160: 2f0b 983d 3501 ddbd 03e7 73be 050e 4c3e
00000170: 3cf3 923c e123 45bd cc86 32be fdf6 a2bd
00000180: 7627 6ebd 20d0 37bd bf36 563c 6929 ec3b
00000190: 54fd 1b3c 3557 d1ba 0570 103c 42e4 85bc
000001a0: 9c9f fabb 293f af3c e3ca 5a3c bae5 04bb
000001b0: 06b9 843c e2b7 98bc f8a3 db3b d00f ca3c
000001c0: c06e cbbb 45a5 dfbb 58b9 293c 4595 6ebb
000001d0: 63b8 e5bc 5ef2 e83c 4353 10bc 1400 953c
000001e0: ca9c 70b9 056c 2bbb 3efc ba3c e29c 0e3c
000001f0: f9c0 80bc c77d 093d 0185 66bc 4955 293d
00000200: a60e 95bc c314 823d 1c16 d4bc 5fe2 c53d
00000210: e21b c5bc fbdf ed3d d545 313c 331a 9a3b
00000220: 58b0 d43c 756a 95bc 8027 3a3d 19c7 87bc
00000230: 838e 373d 340a fabc 264d 153d 5961 1cbd
00000240: e1f0 0e3d 7e68 83bd e40e 023d 6ec2 9dbd
00000250: 95e1 92bc a16e 1cbc 98df 97bc 5704 5e3b
00000260: 5bd3 88bc da12 3f3c 00e0 cf3b ec4e 2f3c
00000270: 830a 533d a166 6fbd 2e9d 34bb 8181 9a3a
00000280: 57b4 a5bb 46df 1e3d 68c3 853c f648 acba
00000290: e5d8 8139 6a52 3fbc 9ad4 07bc 1023 13bd
000002a0: 724f dfbc 7144 6dbd f2e4 edbc 0f14 b7bd
000002b0: 6e51 69bc cfc8 5c3b 51d6 96bb deca 423c
000002c0: afdc 3a3c 392e 713c da42 a73b a591 8cbc
000002d0: 6694 5a3c 53e2 3ebd 7540 9ebd fab2 e33d
000002e0: 4ce7 d03c ffdb 0c3b c811 c83c 2b69 49bb
000002f0: 03bc eebb f85a c5bb 73ca 653c d815 58bc
00000300: be06 0abb 4363 c9bb 150d 0dbc 498d a5bb
00000310: 1516 31bb 05c1 27bd 255a 743e 329d f23d
00000320: 13bf 183e b661 a23d 20dd 7dbd f066 99bd
00000330: 5a3c ef3d 8902 243c 701e 78bd 2447 703d
00000340: 118b 953d ec11 903d 07f8 c2bd c546 7f3d
00000350: ae03 1cbc b220 0a3b 8e67 95be b73a d0bd
00000360: 92bb 5a3e a99b 073d ebcc 20be 31b8 90bd
00000370: e7fe 9abd dedd 4c3d c82a b3bc 4dc3 58bc
00000380: 6675 35bb 8ef7 7a3d 4ddd 833d 3bb5 7b3c
00000390: fa28 af3c ba66 ff3c c875 c53c 8266 96bd
000003a0: f6b4 a4bd 66c5 fdbc 23a4 8d3b 4d19 d83c
000003b0: c598 c7bc aaf1 613d f8c2 aabc b7f9 883c
000003c0: c942 67bc ccd4 bbbc 2a76 083d cdb7 94bc
000003d0: 9cab 463c afe1 ef3b 6dc5 1fbd fb95 45bd
000003e0: 9d9f 643c 8ce9 03bd d200 943a a595 acbc
000003f0: 427e 89bc 8d47 06bc 4b5a 8bbb 0285 bfbb

1.mpn.w1 f4 [4, 64, 64]
0.08665058 -0.20706987 0.062394317 -0.16057359 0.0023567395 0.2410876 0.0148942135 0.109205164
0.013419662 -0.23206195 -0.19550397 -0.10693134 -0.22202082 -0.11409294 -0.2682055 -0.1604113
-0.0806469 -0.06640779 -0.11395956 0.24367237 -0.45839217 -0.09175574 -0.0052834046 -0.29193446
0.20620395 0.16680144 -0.4516592 -0.26007462 -0.2636099 0.19176397 -0.20018645 0.039594818
0.10189252 -0.07174436 -0.16221498 -0.4647078 -0.28512156 0.1298794 0.020415135 -0.1523354
0.010873451 -0.11089289 -0.12872662 -0.22476664 0.12187691 0.05350648 0.012284983 0.3712195
-0.002737411 0.0152185215 0.052985225 0.017544353 0.017730592 0.040466525 -0.40367517 -0.07269349
0.07011773 -0.2005905 0.17472959 -0.037178583 -0.056792434 -0.4373225 0.060324654 -0.08095402
0.097410925 -0.046253692 0.029313229 -0.040608298 -0.097102255 -0.07052428 0.11467827 -0.0366807
-0.00027018096 -0.009601258 0.15735799 0.085451566 0.26901135 -0.025022993 -0.0060682376 -0.123591386
0.009983616 0.011325666 0.010173604 0.009017895 0.10848375 0.008364735 0.07605807 0.23003092
0.04088558 0.1169228 -0.025497995 0.0033847867 0.1936136 0.09863119 0.015315207 0.033811618
0.10714184 0.006119967 0.18141647 -0.00026182894 -0.0024712945 -0.0063023497 -0.006522906 0.0016636449
-0.055011246 0.01699531 0.029301234 0.16374193 0.02867142 0.0561434 -0.032275278 0.16138038
0.013797205 -0.005952245 0.118303165 -0.005211168 -0.015707394 0.10820173 -0.15280448 -0.016162872
0.06516197 -0.13870253 0.09330701 -0.01152266 -0.019801814 -0.13686806 0.05580667 0.044911116
-0.050428778 0.061230034 -0.13393652 -0.0018043634 -0.2679042 -0.118975416 -0.013879403 0.0264568
-0.098484166 0.0007150998 0.120295055 -0.022698265 -0.1815104 0.037778415 -0.31721285 -0.20485651
-0.08299595 -0.015889855 0.13566616 0.21545318 -0.0076405853 0.07854566 -0.09404161 -0.053642593
0.1072741 -0.06880315 0.12669013 0.12512022 -0.11125606 -0.0530641 0.010694817 -0.15791449
0.012892178 0.17906097 -0.21625358 0.062378246 -0.0005845448 0.20509781 -0.16529457 -0.13842143
-0.019415725 -0.061373506 0.22882769 0.05343208 0.1617167 -0.07830837 0.013158606 0.1470508
-0.21980108 -0.030423496 0.028574347 -0.0142683815 -0.06794585 0.09107516 0.110271625 2.6513774e-06
0.09178414 0.13542603 -0.03482338 -0.111846946 0.07829053 -0.033783197 -0.052649174 -0.21242478
0.107164904 0.08037585 -0.2722829 0.0032979934 -0.08786771 0.0039322744 -0.09284761 0.015488349
-0.016474394 -0.007549082 0.10170208 -0.07810086 -0.031372137 -0.0009732964 0.036469527 -0.07209186
-0.046266913 0.021679917 0.18540958 -0.032747872 0.059774127 0.019062553 0.0038122162 0.037699793
0.16142939 -0.21350102 -0.06888697 -0.15270507 -0.15113531 0.28605825 0.0025266032 -0.16201778
-0.19348428 0.044339135 0.008451557 -0.019464638 -0.010546898 0.3180707 0.010970089 -0.03065067
-0.145709 -0.32777205 -0.45538324 0.05504879 0.20189413 -0.09571539 -0.0058293575 -0.26660702
0.01012639 -0.032528717 0.00240745 -0.0072846324 -0.0032241622 -0.2312037 -0.026217474 0.003868867
-0.0006299666 0.06265627 -0.22454761 0.00060569006 -0.11267196 -0.009985093 3.0985677e-05 -0.016663523
00000000: dc75 b13d 200a 54be 2f91 7f3d 676d 24be
00000010: 8773 1a3b abdf 763e dc06 743c f5a6 df3d
00000020: 24de 5b3c a6a1 6dbe 3132 48be d2fe dabd
00000030: 6d59 63be 8fa9 e9bd 3b52 89be dc42 24be
00000040: 342a a5bd cf00 88bd a163 e9bd 4085 793e
00000050: 61b2 eabe 6fea bbbd 6920 adbb 6f78 95be
00000060: 2127 533e ffcd 2a3e e03f e7be 8028 85be
00000070: e0f7 86be c65d 443e adfd 4cbe 2d2e 223d
00000080: 07ad d03d b5ee 92bd af1b 26be 2eee edbe
00000090: 74fb 91be 1bff 043e a43d a73c d0fd 1bbe
000000a0: 8f26 323c d01b e3bd e9d0 03be 3a29 66be
000000b0: 9a9a f93d 9c29 5b3d f446 493c 7b10 be3e
000000c0: 2366 33bb 1b57 793c 0907 593d 2db9 8f3c
000000d0: bf3f 913c 3ac0 253d 83ae cebe 53e0 94bd
000000e0: e299 8f3d 9967 4dbe 50ec 323e 9248 18bd
000000f0: 2f9f 68bd bce8 dfbe fc16 773d 39cb a5bd
00000100: 617f c73d 8374 3dbd 4c22 f03c e354 26bd
00000110: 8cdd c6bd 096f 90bd 71dc ea3d 803e 16bd
00000120: 13a7 8db9 984e 1dbc 7422 213e 3b01 af3d
00000130: dbbb 893e 05fd ccbc 11d8 c6bb 7b1d fdbd
00000140: 5292 233c 498f 393c 30af 263c cbbf 133c
00000150: ba2c de3d 3e0c 093c 55c4 9b3d 3a8d 6b3e
00000160: a377 273d 3975 ef3d 2ce1 d0bc 4cd3 5d3b
00000170: a542 463e 26ff c93d a2ec 7a3c 0d7e 0a3d
00000180: 2e6d db3d 018a c83b 3dc5 393e 1646 89b9
00000190: 71f5 21bb f183 cebb 1abe d5bb a90e da3a
000001a0: 7953 61bd c039 8b3c 2409 f03c f7ab 273e
000001b0: 53e0 ea3c 9ff6 653d 1533 04bd e640 253e
000001c0: ac0d 623c 0d0b c3bb ee48 f23d 72c2 aabb
000001d0: cbac 80bc de98 dd3d c778 1cbe 0068 84bc
000001e0: a473 853d 0908 0ebe bf17 bf3d 8ac9 3cbc
000001f0: 6a37 a2bc 2427 0cbe 8995 643d b8f4 373d
00000200: 688e 4ebd 58cc 7a3d a826 09be 6480 ecba
00000210: bd2a 89be 62a9 f3bd 6f66 63bc eebb d83c
00000220: 11b2 c9bd 8975 3b3a 415d f63d b6f1 b9bc
00000230: dddd 39be 8abd 1a3d b969 a2be e8c5 51be
00000240: c8f9 a9bd 712b 82bc 12ec 0a3e c29f 5c3e
00000250: e05d fabb 8cdc a03d e398 c0bd 56b8 5bbd
00000260: 86b2 db3d aae8 8cbd 0fbb 013e 841f 003e
00000270: 38da e3bd be59 59bd 5039 2f3c 56b4 21be
00000280: b739 533c c25b 373e 9471 5dbe 5580 7f3d
00000290: 233c 19ba 2905 523e fb42 29be 59be 0dbe
000002a0: ba0d 9fbc c962 7bbd ce51 6a3e 99db 5a3d
000002b0: 1099 253e 2460 a0bd 3297 573c 7c94 163e
000002c0: 8913 61be b23a f9bc c014 ea3c eec5 69bc
000002d0: 3227 8bbd 9d85 ba3d 17d6 e13d 51ee 3136
000002e0: 53f9 bb3d 1fad 0a3e f6a2 0ebd 0310 e5bd
000002f0: c956 a03d 4060 0abd a9a6 57bd e285 59be
00000300: 4679 db3d 189c a43d aa68 8bbe 2623 583b
00000310: fcf3 b3bd 4fda 803b e326 bebd d8c2 7d3c
00000320: 4ff5 86bc 4a5e f7bb 2e49 d03d 58f3 9fbd
00000330: 1280 00bd d124 7fba 1261 153d e6a4 93bd
00000340: 6082 3dbd 159a b13c 02dc 3d3e a222 06bd
00000350: b7d5 743d 1229 9c3c 60d6 793b 196b 1a3d
00000360: bf4d 253e 03a0 5abe 9d14 8dbd b85e 1cbe
00000370: 37c3 1abe 3a76 923e 5e95 253b fde7 25be
00000380: be20 46be f49c 353d 6678 0a3c 4e74 9fbc
00000390: e5cc 2cbc 2ada a23e e3bb 333c 1d17 fbbc
000003a0: bd34 15be bdd1 a7be fe27 e9be d77a 613d
000003b0: 56bd 4e3e 6e06 c4bd 3204 bfbb b780 88be
000003c0: 28e9 253c d53c 05bd 4fc6 1d3b edb3 eebb
000003d0: 774c 53bb aac0 6cbe 07c6 d6bc d18c 7d3b
000003e0: 5824 25ba ee51 803d cfef 65be 2cc7 1e3a
000003f0: 8ec0 e6bd 8498 23bc 9ef6 0138 f181 88bc

1.mpn.w2 f4 [4, 91, 64]
-0.013282818 -0.0111537445 -0.047726043 0.0012589415 -0.010355679 0.027557682 -0.0011316382 0.015577815
0.018807707 0.02597485 0.00021810948 -0.016043395 0.030495374 -0.011402231 -0.0033704462 0.017963164
0.014382658 -0.0042730235 0.026408844 -0.0076873936 0.031372853 -0.021480521 -0.017876653 -0.020605674
0.010265019 0.024154386 -0.0040322626 -0.0109441355 0.0015425431 -0.013582631 0.0006911953 -0.07464981
0.019688394 -0.050356362 0.014616758 0.0129661495 0.00712034 0.018940654 -0.046133652 0.028111994
-0.017705452 -0.034321867 -0.01108575 -0.0389468 -0.024454713 -0.06759012 0.04622364 -0.018180957
-0.022884518 -0.015643336 -0.034526866 -0.06797288 -0.03131025 -0.024126275 -0.012032825 -0.06418732
-0.022887362 0.052476775 -0.013645126 0.027734678 0.024390357 0.007858522 -0.00028125997 0.0031082812
-0.02508382 -0.0040389174 0.00015544464 -0.0043542646 -0.013833556 0.037364874 -0.036221594 -0.012307606
0.011845976 -0.02732878 -0.0141098695 0.026192678 -0.03418614 -0.04222229 0.043779686 0.06423422
0.015560924 -0.011355295 0.012103239 0.036342025 -0.037776478 -0.007867884 -0.013105213 -0.0029813473
0.014258803 -0.00193219 -0.000112013666 0.013666462 0.006784641 0.0029101034 0.015736118 -0.043449048
-0.015198733 -0.0355158 0.048162214 -0.006139322 0.06563138 -0.035008803 -0.00872919 0.039089497
-0.0153520135 0.00093740714 -0.019071601 -0.025572188 0.012588619 -0.032205462 0.006502233 -0.031618852
0.054205604 0.006640455 0.03242218 -0.034065846 0.031641275 0.027041988 0.0022762606 -0.01903519
-0.025461439 0.03842898 0.0027100572 0.040498763 0.06777689 0.021772325 0.05479859 0.059643712
-0.006913662 -0.011670151 -0.04373385 -0.00086443604 -0.010616393 0.018802661 0.0029768941 0.006826671
0.021513434 0.028016621 3.834988e-05 -0.0061378805 0.038141325 -0.005761472 -0.01981585 0.023244632
0.015125225 -0.009709897 0.026529364 -0.0061847633 0.02845847 -0.021836687 -0.004210725 -0.02366319
0.010834441 0.021986093 -0.0033236234 0.002169977 -0.00027246596 -0.017837783 -0.005502425 -0.084738724
0.007068794 -0.044867698 0.011650387 0.004682695 0.0035088635 0.027154969 -0.04872393 0.031819288
-0.017476138 -0.043844607 -0.010265076 -0.039996453 -0.018185534 -0.060982496 0.043571558 -0.008989715
-0.020723395 -0.01397802 -0.019140752 -0.06021853 -0.025772592 -0.024226189 -0.029686732 -0.07204811
-0.016811036 0.048045486 -0.028115572 0.03810702 0.016333463 0.0100973 -0.0022585364 0.008644199
-0.02064722 -0.005903996 -0.017300654 -0.008639437 -0.013468804 0.060681824 -0.027239477 -0.01061547
-0.00012462148 -0.030386567 -0.020434124 0.0070772935 -0.033591043 -0.04219566 0.025716752 0.07310602
0.010057929 -0.005691192 0.010898676 0.034215357 -0.0439793 -0.013618358 0.007443985 -0.0049917195
0.014556589 0.02997524 -0.031421244 -0.015572195 0.0044268006 -0.020628538 0.031513438 -0.03475336
-0.02231289 -0.019038 0.047836713 0.030146588 0.046533715 -0.009273748 -0.0047978847 0.04310098
-0.016530642 -0.015910638 -0.015104069 -0.03356981 0.012046544 -0.022514611 -0.009707538 -0.02397359
0.035346963 0.009004439 0.0055867657 -0.029456994 0.040092826 0.014349633 -0.008407704 -0.024506142
-0.013059394 0.03634072 0.0006680427 0.039324973 0.06724169 0.048508704 0.05352112 0.02714708
00000000: 2da0 59bc 32be 36bc 627c 43bd 1103 a53a
00000010: deaa 29bc a6c0 e13c 7a53 94ba 173a 7f3c
00000020: 9f12 9a3c 35c9 d43c 51b4 6439 706d 83bc
00000030: 6fd1 f93c 6cd0 3abc b4e2 5cbb 7c27 933c
00000040: 3da5 6b3c b804 8cbb 5c57 d83c 88e6 fbbb
00000050: d280 003d ebf7 afbc 0f72 92bc 3bcd a8bc
00000060: 9c2e 283c 6bdf c53c 1221 84bb 084f 33bc
00000070: 282f ca3a af89 5ebc 5531 353a 00e2 98bd
00000080: 8e49 a13c 7942 4ebd 207b 6f3c f96f 543c
00000090: be51 e93b 6e29 9b3c a4f6 3cbd 204b e63c
000000a0: 060b 91bc 1695 0cbd 01a1 35bc ae86 1fbd
000000b0: 4055 c8bc b06c 8abd 0055 3d3d 3bf0 94bc
000000c0: 5078 bbbc 7426 80bc 0b6c 0dbd 5e35 8bbd
000000d0: 2d3f 00bd 77a4 c5bc 5325 45bc a474 83bd
000000e0: 477e bbbc e3f1 563d ce8f 5fbc d633 e33c
000000f0: 49ce c73c 08c1 003c 1376 93b9 4eb4 4b3b
00000100: 957c cdbc e558 84bb dafe 2239 38ae 8ebb
00000110: 24a6 62bc e90b 193d 185d 14bd d7a5 49bc
00000120: a015 423c 9be0 dfbc 152d 67bc 0792 d63c
00000130: c406 0cbd 48f1 2cbd 5452 333d 3b8d 833d
00000140: 3ff3 7e3c 8f0b 3abc aa4c 463c 60db 143d
00000150: 82bb 1abd 4ce8 00bc 3fb7 56bc b562 43bb
00000160: c19d 693c 8a41 fdba e1e8 eab8 4ce9 5f3c
00000170: b251 de3b 6fb7 3e3b 08e9 803c a1f7 31bd
00000180: 1b04 79bc 0479 11bd be45 453d 5e2c c9bb
00000190: bf69 863d 6465 0fbd e004 0fbc 4f1c 203d
000001a0: 0387 7bbc 54bc 753a 0c3c 9cbc c47c d1bc
000001b0: 7f40 4e3c e0e9 03bd af10 d53b c582 01bd
000001c0: b206 5e3d 2d98 d93b 1fcd 043d a188 0bbd
000001d0: 489a 013d 2987 dd3c 512d 153b b0ef 9bbc
000001e0: 8294 d0bc b567 1d3d 379b 313b 08e2 253d
000001f0: 9cce 8a3d e05b b23c 7c74 603d f74c 743d
00000200: 008c e2bb 2934 3fbc 4422 33bd 529b 62ba
00000210: 61f0 2dbc 0a08 9a3c ff17 433b 44b2 df3b
00000220: f13c b03c 1d83 e53c dfd9 2038 4620 c9bb
00000230: 143a 1c3d bbca bcbb d954 a2bc 876b be3c
00000240: cbcf 773c 4316 1fbc 1c54 d93c 8ea9 cabb
00000250: bd21 e93c dae2 b2bc 1ffa 89bb 4ed9 c1bc
00000260: f082 313c 2e1c b43c 26d1 59bb 2c36 0e3b
00000270: c3d9 8eb9 8b20 92bc b04d b4bb 7f8b adbd
00000280: 58a1 e73b 31c7 37bd 44e1 3e3c 4b71 993b
00000290: f6f4 653b 1974 de3c be92 47bd f154 023d
000002a0: 1e2a 8fbc 6796 33bd d92e 28bc 52d3 23bd
000002b0: d4f9 94bc c8c8 79bd 1778 323d 9949 13bc
000002c0: 1cc4 a9bc 1104 65bc 11cd 9cbc b5a7 76bd
000002d0: 0b21 d3bc 0076 c6bc 9731 f3bc f68d 93bd
000002e0: 4cb7 89bc 58cb 443d a152 e6bc 1b16 1c3d
000002f0: c1cd 853c 256f 253c f403 14bb 66a0 0d3c
00000300: 5c24 a9bc 4f76 c1bb 1aba 8dbc 6d8c 0dbc
00000310: 42ac 5cbc 818d 783d 5325 dfbc 82ec 2dbc
00000320: d3ac 02b9 40ed f8bc 7765 a7bc a4e8 e73b
00000330: c396 09bd 5bd5 2cbd f0ab d23c 9cb8 953d
00000340: 03ca 243c 2e7d babb 5c90 323c 6725 0c3d
00000350: a323 34bd 891f 5fbc acec f33b 9491 a3bb
00000360: c27e 6e3c a28e f53c 90b3 00bd 8522 7fbc
00000370: b20e 913b 2efd a8bc 3c14 013d 8a59 0ebd
00000380: 86c9 b6bc 94f5 9bbc 6ef0 433d faf5 f63c
00000390: 239a 3e3d ebf0 17bc 9337 9dbb a78a 303d
000003a0: 456b 87bc 0757 82bc 0f77 77bc 7f80 09bd
000003b0: de5e 453c 9070 b8bc 5e0c 1fbc 4364 c4bc
000003c0: fac7 103d 5b87 133c 3011 b73b cb4f f1bc
000003d0: 6038 243d b91a 6b3c 77c0 09bc 1bc1 c8bc
000003e0: 12f7 55bc 02da 143d 961f 2f3a 3913 213d
000003f0: 03b6 893d 10b1 463d f638 5b3d 8e63 de3c

1.mpn.b0 f4 [4, 64, 1]
0.3534837 0.43631142 -0.3522835 0.21778296 0.31999975 0.8233469 0.31925046 0.42737207
0.28688362 0.083329774 -0.07136858 0.58345056 0.35538808 0.14948559 0.4457653 0.38613984
0.4577638 -0.02569481 -0.3565055 0.290785 0.023223164 0.2909473 -0.34598202 0.033492126
-0.11348351 0.48475215 0.15159848 0.006870344 -0.15355535 0.1765186 -0.177835 -0.5329243
0.0031392125 0.25235546 0.8500901 -0.031617098 0.08673089 0.6471969 0.1291211 -0.059845
-0.16798952 -0.28828162 -0.48759612 -0.08701248 0.30974206 0.26367396 0.6806975 -0.1763823
-0.13554583 0.11913199 0.03493907 0.10358304 0.20819812 -0.11796896 0.08763783 0.44988763
-0.06744393 -0.30112657 -0.13955092 0.07560346 0.020009011 0.83920443 0.37635565 0.2654586
-0.0024484547 -0.321943 0.11599919 -0.47297615 -0.26439118 -0.06571473 -0.15666954 0.004814314
-0.34536144 0.16622235 -0.23964502 -0.53100204 -0.26496044 0.16817234 -0.30004153 -0.32307634
-0.25163278 -0.056978498 -0.11430578 -0.40143025 -0.37350002 -0.3246077 0.1607485 -0.10963638
0.075811975 -0.16877148 0.10271216 0.11671571 -0.12847489 -0.14028126 0.42220834 0.08877078
0.038244363 -0.23519678 -0.3375433 -0.19916242 0.20302843 -0.04232526 0.07659397 0.037363343
0.24515645 0.14274892 0.28187048 0.13556331 -0.30549186 -0.2933157 -0.30395895 0.17616625
0.010018875 -0.31216756 0.18333577 -0.21270183 -0.0866844 -0.028860582 0.20087884 -0.05294961
0.10208927 0.33222774 0.49793106 0.0013654915 0.22693999 -0.5395451 -0.21045882 -0.06772353
-0.40672687 0.019338153 0.25262395 -0.18648387 0.39687467 0.7580409 0.33062527 0.13645667
-0.17814076 0.060191546 -0.21936548 0.25657484 0.20892459 -0.24861564 0.59304696 0.19471449
0.62517124 0.041408163 -0.43098456 -0.29535583 -0.14178951 0.31532946 -0.18681824 0.37530258
0.1968167 -0.2538564 0.4694978 0.43182892 0.53335017 -0.23598658 -0.2488027 0.05661878
0.111295246 -0.17927288 0.012297956 0.05183522 0.06571534 -0.40570384 0.008452971 0.18892612
-0.47074136 0.24018212 0.21938069 0.069890566 -0.23144172 0.14583986 0.6216709 -0.107616015
-0.18608099 -0.041909106 -0.15364227 -0.09435147 -0.22293192 -0.20874463 -0.2195498 0.056348145
-0.25921082 0.106432594 0.15159704 -0.17602031 0.24972306 0.18724811 0.2992777 0.72158664
0.04120313 0.26255456 0.024812827 -0.02224235 -0.3888509 -0.34480405 0.25089565 0.041153032
0.14052597 -0.4074327 -0.027282398 -0.5406265 -0.006065969 -0.13765055 -0.15211532 -0.3235281
-0.042755798 0.09447161 0.034363694 0.040088415 -0.033638507 0.16434817 0.28018057 0.09908626
-0.14900921 0.13367485 -0.086261965 -0.09033508 -0.07254027 -0.34060013 0.58531076 -0.081265524
-0.4059536 -0.4006274 -0.2569812 -0.31695694 -0.38419047 0.35291067 0.23786448 -0.26435375
0.43457097 -0.33623463 0.18686563 -0.2957184 0.3579551 -0.27555707 -0.52943814 0.13234498
0.0268518 0.29124337 0.248113 0.18775794 -0.11245907 0.043841206 0.10562293 0.07223428
0.23361021 0.56638724 0.669848 -0.1913031 0.47679234 -0.22281246 -0.3984431 -0.21121603
00000000: d1fb b43e 3664 df3e 815e b4be 7f02 5f3e
00000010: 02d7 a33e ddc6 523f cc74 a33e 83d0 da3e
00000020: 69e2 923e cda8 aa3d b129 92bd 045d 153f
00000030: 6df5 b53e c012 193e 593b e43e 1fb4 c53e
00000040: 0460 ea3e ec7d d2bc e487 b6be c6e1 943e
00000050: 813e be3c 0bf7 943e 8e24 b1be 0a2f 093d
00000060: 0b6a e8bd 6f31 f83e a23c 1b3e 9f20 e13b
00000070: 9d3d 1dbe 4bc1 343e 611a 36be ba6d 08bf
00000080: 3fbb 4d3b bc34 813e 819f 593f ee80 01bd
00000090: f79f b13d b2ae 253f 5238 043e 0820 75bd
000000a0: 7205 2cbe a699 93be 33a6 f9be 9933 b2bd
000000b0: 8396 9e3e 4600 873e 3142 2e3f 909d 34be
000000c0: 87cc 0abe 79fb f33d 451c 0f3d 5823 d43d
000000d0: e331 553e b699 f1bd 767b b33d ac57 e63e
000000e0: 0b20 8abd 432d 9abe 70e6 0ebe fdd5 9a3d
000000f0: f0e9 a33c 1ad6 563f b0b1 c03e 31ea 873e
00000100: 4176 20bb b7d5 a4be fc90 ed3d ee29 f2be
00000110: 485e 87be 7295 86bd fb6d 20be 65c1 9d3b
00000120: 37d3 b0be 3136 2a3e 8165 75be c0ef 07bf
00000130: e5a8 87be 5f35 2c3e 0b9f 99be 436a a5be
00000140: 03d6 80be 4962 69bd 2619 eabd 4488 cdbe
00000150: 653b bfbe fb32 a6be 419b 243e 0a89 e0bd
00000160: 4f43 9b3d 6ed2 2cbe c15a d23d a508 ef3d
00000170: ec8e 03be e4a5 0fbe b12b d83e 74cd b53d
00000180: 1fa6 1c3d 6dd7 70be 7ad2 acbe 3cf1 4bbe
00000190: afe6 4f3e 405d 2dbd 4ddd 9c3d 4e0a 193d
000001a0: 4b0a 7b3e c62c 123e 5451 903e 1cd1 0a3e
000001b0: 6e69 9cbe 7a2d 96be 82a0 9bbe ed64 343e
000001c0: 3526 243c 6dd4 9fbe 5fbc 3b3e 82ce 59be
000001d0: 9787 b1bd 076d ecbc 2fb3 4d3e b1e1 58bd
000001e0: 2e14 d13d c119 aa3e d2f0 fe3e 4bfa b23a
000001f0: f562 683e a11f 0abf 8482 57be a2b2 8abd
00000200: 813e d0be 0c6b 9e3c ed57 813e a1f5 3ebe
00000210: 2833 cb3e f80e 423f b747 a93e 4cbb 0b3e
00000220: 886a 36be 698b 763d 58a1 60be c75d 833e
00000230: 54f0 553e 1995 7ebe edd1 173f 3c63 473e
00000240: 390b 203f 9b9b 293d 02aa dcbe e138 97be
00000250: 4531 11be dd72 a13e 484d 3fbe a927 c03e
00000260: 518a 493e 77f9 81be 0462 f03e ae18 dd3e
00000270: a389 083f 77a6 71be 23c6 7ebe 18e9 673d
00000280: c3ee e33d 4f93 37be 5e7d 493c 2b51 543d
00000290: c495 863d 6ab8 cfbe 547e 0a3c d975 413e
000002a0: 0305 f1be 4df2 753e 55a5 603e c922 8f3d
000002b0: 0fff 6cbe 0b57 153e d325 1f3f c965 dcbd
000002c0: 048c 3ebe e2a8 2bbd 6654 1dbe 583b c1bd
000002d0: 4448 64be 27c1 55be aad1 60be 50cd 663d
000002e0: 48b7 84be 55f9 d93d 413c 1b3e ab3e 34be
000002f0: 67b7 7f3e f8bd 3f3e ed3a 993e e7b9 383f
00000300: 9dc4 283d 8d6d 863e 4544 cb3c 9735 b6bc
00000310: 7717 c7be 288a b0be 6575 803e 1590 283d
00000320: 0ae6 0f3e 059b d0be 567f dfbc 8066 0abf
00000330: 09c5 c6bb 44f4 0cbe 1ec4 1bbe 7aa5 a5be
00000340: b420 2fbd 557a c13d f2c0 0c3d c033 243d
00000350: 88c8 09bd e34a 283e d473 8f3e bded ca3d
00000360: df95 18be 0fe2 083e 1daa b0bd 9901 b9bd
00000370: fe8f 94bd 2463 aebe edd6 153f 8a6e a6bd
00000380: 26d9 cfbe 091f cdbe 0a93 83be 2e48 a2be
00000390: 9db4 c4be b5b0 b43e bf92 733e 6059 87be
000003a0: 1680 de3e f226 acbe b459 3f3e 6768 97be
000003b0: e445 b73e d115 8dbe 4289 07bf 7185 073e
000003c0: 4ef8 db3c da1d 953e 5611 7e3e 9e43 403e
000003d0: f150 e6bd d692 333d d650 d83d 91ef 933d
000003e0: 8437 6f3e c1fe 103f 297b 2b3f f6e4 43be
000003f0: 201e f43e f328 64be bc00 ccbe 0449 58be
